node_create/dqn_model.pth (torch, 47703 bytes, 6 tensors)

fc1.weight f4 [128, 16]
00000000: cd58 12be 8f0d 043f 2074 a33e b992 9fbb
00000010: e3ca b43e 73d0 9e3e cd55 b4bd 63a6 a03e
00000020: cc15 143e 8e5a 0f3e bb6d c7bd 90bf c03d
00000030: a105 8f3e e147 243e 99eb eabd 5ccb 1b3e
00000040: 5055 7b3e 96f8 3c3e da3f ce3e f1c9 e23e
00000050: 045f cdbd de65 a4bd af56 39bd 4960 e63e
00000060: a87a 76bd b891 d13e bd73 c53d 20b9 943e
00000070: 4408 d93e 40b2 b43e 2aa5 da3e 0428 323e
00000080: 1605 aebd b3d2 b83d 0e87 2f3d 39ce 663e
00000090: 11ff d03e 5d9a 1e3e 4e63 e93e 7e4e c03e
000000a0: 29f8 503c 00f7 dc3c a39d 31be f539 353e
000000b0: ed0e 9e3e c859 e63e 022e 2d3d 349a 653e
000000c0: 173d fc3e badc 83bc e158 023f a807 343e
000000d0: 8e62 013f c603 5f3e 4cc4 b93e c7eb aa3e
000000e0: ca79 05be bc2f d53e c13e a73e f637 c93d
000000f0: 3bf8 ba3e daf3 b43e 6f31 aa3e 588e 403d
00000100: 6972 c83e 8b50 ee3e 7bb4 d53e 5ecf 4d3e
00000110: 2f29 023f 5968 ae3e ef58 df3e 124c cf3e
00000120: daa4 4f3e de3a 9f3e 5410 8b3e 27ad b13e
00000130: d635 553c fcf0 c73e 89da f53e e0ca 3ebe
00000140: 8b8d d93e 18b1 b63e a381 993e edf1 713a
00000150: e686 323b 695c 803e 798e 8f3e 4e72 b33e
00000160: 6659 593e d16e d43e 81ac 6dbd a9ef c93d
00000170: dfc9 f03e 0a3f aa3e 6dea c9bb fe61 1ebe
00000180: aa48 f73e a83d e53e 1413 c53e 5752 f03b
00000190: a550 16be 535e 703e 601c ae3d b3f3 c23d
000001a0: d05e fdbd f795 9b3e a6fa bcbb 13ed 9e3e
000001b0: 09a7 983d be47 d73e acf4 18be 7c2f 863d
000001c0: 9c14 0c3e 4b69 393e 670b e73e 3b37 b23e
000001d0: 298a ad3e 8c11 e43e 9ee0 8f3e 341b 5a3e
000001e0: 5ac3 81bd b0da 333e 3577 72be b84d 163e
000001f0: 8e01 bf3e edcc 76be 7d4e a03e 5e35 20be
00000200: 1c34 963d 7edc 033e 7e88 0d3e 5071 103d
00000210: 6073 18bc e050 233c 5c28 94bd b0fa b03c
00000220: 6212 1cbe 3e54 23be 6009 6a3d ac06 18be
00000230: a88b 103e c819 093e 68d4 273d 5060 10be
00000240: 6162 a43e f62f 943e 36c4 d13e b0c6 3bbc
00000250: 058c 8d3e 2e53 4e3d a895 c0bd d972 b13e
00000260: d5a3 db3e 71f8 f8bd 78c4 db3e c83d d13d
00000270: 02d4 c33d c25d 8b3e f9c8 cd3d d881 273e
00000280: ef37 713e c3c2 a63e 0886 ef3e cef2 163e
00000290: 889b 7c3e f0dc a13e 2fc6 c63e 64db 983d
000002a0: 681d 393e 53de d73e 0a15 de3d 86a2 923e
000002b0: f1a4 f73d 6b9b 8f3e 316f b73e c8d7 9e3d
000002c0: 1492 bc3d 1028 053f ed17 633e ea21 8a3c
000002d0: 8c14 ff3e 91a7 bd3a 51dd f63e 8ad2 cd3d
000002e0: 5130 c93e a0bd c23e 55f2 f13e 7170 833e
000002f0: 3217 273e b65a b43e 455d 503d 2ebf 16be
00000300: 4beb 94bd c5e0 533e d92f 353e 7c51 ab3e
00000310: 7e21 a33e 454b cc3e e2d3 603c 9d44 a13d
00000320: 7768 2e3e 8c64 e1bc a3ca 9b3d 2d5b 253e
00000330: d946 91bd eaef d93e eaee 613e 92b5 18be
00000340: 2f07 d03e bd8a ed3e 0faf 173e 68d3 043f
00000350: a855 df3e eda3 823e c3da d6bd 12f3 b03d
00000360: f169 ba3d 159e 03be 8b57 bc3e eccd 7c3e
00000370: e669 8a3e b051 1b3e ee0d 7a3e 2490 68be
00000380: 6492 f93e 909f c03e 4927 893e f6c6 fa3e
00000390: 91f1 c23c 49e5 bb3d 0dfa e23c dfcd 833e
000003a0: 8b05 403e 37d8 893e 6aad f73e 2122 d83e
000003b0: 2b57 f23b c797 c43e 7afa b13e 1851 f8bd
000003c0: cf78 143e f6a1 41bc 4222 cd3e 752d 703e
000003d0: 1a0f 003f d008 d23e 5944 d73e e1a3 d23e
000003e0: 6265 b03d 6872 e93e 3140 993e 0808 4d3e
000003f0: 68d4 d73e a3d9 b33e 07f4 883e 72fc 573e
-0.14291687 0.5158319 0.31924534 -0.0048697856 0.3531104 0.3101841 -0.08805428 0.31376943
0.1446144 0.13999388 -0.09737726 0.09411538 0.27933982 0.16043045 -0.11470718 0.15214294
0.24544263 0.18454203 0.4028309 0.44294694 -0.100278884 -0.08027242 -0.045248684 0.44995335
-0.060175568 0.40931487 0.09641216 0.2904749 0.4238912 0.35292244 0.42704135 0.17398077
-0.08497064 0.09024563 0.042853408 0.22539605 0.408196 0.15488572 0.45583576 0.37559885
0.0127544785 0.026973248 -0.1734529 0.1769789 0.30870762 0.44990373 0.042280205 0.22422105
0.49265358 -0.016096462 0.5091687 0.17581046 0.5054101 0.21778783 0.36282575 0.3338301
-0.1303474 0.4163798 0.32665065 0.09825127 0.3651751 0.35342294 0.3324084 0.04701075
0.39149788 0.46545824 0.41739258 0.20098636 0.5084409 0.34063986 0.43622538 0.40487725
0.2027773 0.310996 0.27160895 0.34702417 0.013013324 0.39051044 0.48018292 -0.18632078
0.424908 0.35681987 0.29981717 0.000922947 0.002724105 0.25070503 0.28038386 0.35048145
0.21225509 0.41490796 -0.05802584 0.09860165 0.47029015 0.3325122 -0.006161979 -0.15467069
0.48297626 0.44773602 0.38491118 0.0073340344 -0.14679201 0.23473482 0.08501506 0.09519138
-0.123716 0.30387852 -0.0057671843 0.31040248 0.074537344 0.42046922 -0.14937085 0.06552026
0.13679737 0.18106572 0.45125887 0.34807763 0.3389447 0.44544637 0.28101057 0.2129944
-0.063360885 0.17563891 -0.23678286 0.14678085 0.37305874 -0.2410161 0.31309882 -0.15645358
0.07334158 0.1287708 0.13821599 0.035264313 -0.009304851 0.009968013 -0.072342604 0.021603912
-0.15241387 -0.15950105 0.057137847 -0.14846295 0.14115775 0.13388741 0.04097405 -0.1409924
0.32106307 0.2894284 0.4097001 -0.011460945 0.2764589 0.050372295 -0.09403545 0.34657934
0.4289843 -0.121567614 0.4292333 0.10216862 0.09561922 0.2721997 0.10048098 0.16358125
0.23556493 0.32570466 0.46781945 0.1474106 0.24668705 0.31613874 0.38823077 0.074637204
0.18077624 0.42161807 0.10843857 0.2863962 0.12092007 0.28048262 0.3582702 0.07756001
0.0920755 0.52014256 0.22177096 0.016861875 0.49820364 0.0014469494 0.48215726 0.10049923
0.39294675 0.38035297 0.47255197 0.25671723 0.16317442 0.35225457 0.0508702 -0.14721367
-0.07271441 0.20691212 0.17694034 0.33460605 0.3186149 0.39901176 0.013722392 0.07874415
0.17032038 -0.027513765 0.07607009 0.16148062 -0.07093591 0.42565852 0.22063795 -0.14913014
0.4063048 0.4639491 0.14812873 0.5188508 0.43620038 0.2551569 -0.10490944 0.08640112
0.09102238 -0.12853272 0.3678554 0.24687928 0.2703392 0.1516788 0.24419376 -0.22711235
0.487445 0.37621737 0.26787785 0.4897992 0.023796828 0.09174592 0.027707124 0.25743005
0.18752114 0.2692277 0.48374492 0.42213538 0.007395645 0.38397047 0.3476141 -0.121248424
0.1449921 -0.0118184 0.400652 0.2345484 0.50023043 0.41022348 0.42044333 0.41140655
0.08613087 0.45595098 0.29931787 0.20022595 0.4215424 0.3512698 0.26748678 0.21092394

fc1.bias f4 [128]
00000000: 7e51 af3e 1746 bf3e b7d7 a43e d31f 4f3e
00000010: 5aa2 3f3e ada4 c33e 63af 973e 6980 3e3e
00000020: ae21 1dbe ea0e b33e 5f91 e93e 7c70 ed3e
00000030: 362d a33e 827c 893e 054f fc3e 8787 9b3e
00000040: 64fb 143d 682a 7ebe 010f 8d3e efa5 793e
00000050: 982b e33e 69a0 383e 92ee a53e 4e96 69be
00000060: 2376 9a3e 03dd 873e 098b 0f3f 9cc8 c43d
00000070: a42f 013f dea8 af3e 99bc 9e3e 1a93 763e
00000080: 2fcd 3f3e 0317 b73e 9cc4 003f c1dd 5e3e
00000090: 1005 6e3e ccb8 7abe 2589 d53e c940 853e
000000a0: 0c62 a7bd f21d 303e 9cb4 b33e 6751 2a3e
000000b0: 3a1d 4c3e b961 ad3e 7441 0a3f 3e7a 953e
000000c0: efe3 873e 78c4 c23e 2a1c c13d 4c33 af3e
000000d0: 0b83 ba3e e02f 083d c18c a63c d716 7e3e
000000e0: f8f1 c83d cbf6 6b3e ff55 623e 0020 153e
000000f0: d82d 74be f932 d33e 2d6a 1d3e 8f73 ab3d
00000100: badc 9c3e e652 8a3e 354c e63d a264 b13e
00000110: 72f9 e23e ea35 71be fa94 ae3e 3c59 d73e
00000120: 338d 1f3e 4f9c 8d3e d220 a33e 8746 9d3e
00000130: 4ad5 033e 224a 81be 845c ac3e fe40 c33e
00000140: f179 b03e aada 54be 2366 593e 5f55 ea3e
00000150: 7d02 0d3f 2d7a e93e 1e00 ba3e d6a5 793e
00000160: 3202 973e 13a1 fd3e ab6a 4d3e d338 de3d
00000170: 0d06 c73e 912b d83e 3114 6fbe 757a f73e
00000180: b4e0 033f 0432 1e3e b468 fa3e 2871 ca3e
00000190: ccc1 bf3e 6ebc 813e 3c4c 7b3e c98f 4b3e
000001a0: 9771 ae3e f176 e13d 2fb7 a63e 7c29 8b3e
000001b0: a3c9 043f c79c db3e 4189 803e fe7a 73be
000001c0: 9aa7 5ebe f31f db3e 4f6f 463e 7a4e 393e
000001d0: 6037 013f 3233 893e e24e 573e 071b c53e
000001e0: b8d5 68be fa25 9d3d 3f00 193e 2f7a ff3e
000001f0: 8eb8 5f3e 3306 f93e d746 b43e 43cb a13e
0.3424186 0.37358162 0.32195827 0.20226984 0.18714276 0.38211575 0.29625997 0.18603672
-0.15344879 0.34972316 0.45618722 0.4637488 0.3187043 0.26852804 0.49279037 0.30376837
0.036372557 -0.24820864 0.2755051 0.24379705 0.44369197 0.18029942 0.32408577 -0.22811243
0.30168256 0.26535806 0.56071526 0.09608576 0.5046332 0.34308523 0.31003264 0.24079552
0.18730615 0.35759744 0.503 0.2176428 0.23244119 -0.24484557 0.41706195 0.2602599
-0.08172998 0.17198923 0.35098732 0.16632615 0.19933024 0.3386362 0.54006124 0.29194826
0.26541087 0.3804052 0.094292 0.34218824 0.36428103 0.033248782 0.020330789 0.248134
0.09811777 0.23043363 0.22103117 0.14562988 -0.23845613 0.41249827 0.15372534 0.083716504
0.3063715 0.2701637 0.11245004 0.3464709 0.44330937 -0.23555723 0.34098035 0.42060268
0.15581207 0.27658316 0.31860977 0.3071787 0.12874332 -0.2525187 0.33664334 0.38135523
0.34468034 -0.20786539 0.21230368 0.45768258 0.5508192 0.45601025 0.36328214 0.24379668
0.29493862 0.49536952 0.20060222 0.10850682 0.38871804 0.4222074 -0.23347546 0.48335615
0.51514745 0.15448767 0.48908007 0.39539456 0.37452543 0.25339073 0.245408 0.19879068
0.34071037 0.110090144 0.32561633 0.27180088 0.51870173 0.4289305 0.25104716 -0.23777387
-0.21743622 0.42797813 0.19378398 0.18096343 0.5047512 0.2679687 0.21026185 0.38497183
-0.22737777 0.07673259 0.149415 0.49897906 0.21847746 0.48637542 0.35210297 0.3160039

fc2.weight f4 [64, 128]
00000000: db4f 7b3e ff99 e63d 47b8 d03d f365 493e
00000010: ce38 293e 47bd 3d3e 0516 543e 8825 323e
00000020: 5e4a 84bd 7cdf 3d3e afa7 763e c75e 393e
00000030: e527 a03d ddc2 ae3d ac46 213e d965 673e
00000040: 177d 5e3e 008c a63c e292 103e 1e1d f53d
00000050: f90e 6c3e 240c 863e 0302 2c3e 7732 29bd
00000060: 7505 4a3e 9f5f 733e af3d 333e 040d 5d3e
00000070: 3b57 413e 982b 783e 7866 d63d 4718 af3d
00000080: 43f7 603e 7ce8 163e 92d4 9a3d c26e 853e
00000090: 1486 d23d 4013 2ebd f7a3 363e d956 6f3e
000000a0: db8c b03d dc8d 243e df99 483e 66c2 533e
000000b0: 8396 013e 6393 fe3d 283e ee3d 6c93 d93d
000000c0: 4db1 ef3d 1ad6 333e b30f 593e 3179 263e
000000d0: dd09 393e e7a1 6a3e 18a8 543e db90 263e
000000e0: cdd1 2c3e 2ffa 583e e18e 1c3e 17c3 043e
000000f0: b7ae 9b3d 7ae3 793e 43d9 773e 2aa8 2f3e
00000100: 63b8 ae3d 9746 7a3e 7b51 013e 01d3 473e
00000110: 44e0 2a3e 06a8 333d aca7 603e 62b9 2c3e
00000120: 385e c03d 5f57 403e cdf0 3b3e 7511 763e
00000130: b394 343e aa0f 713d ce9f 4c3e e51a 823e
00000140: 50bb 2f3e 4289 6e3d 623c 163e 3409 093e
00000150: b01f 9e3d fe1d 723e 1214 663e 100a e23d
00000160: 9731 823e ecfe 4c3e 1ca2 743e 0274 5f3e
00000170: 96d7 4a3e b61a f83d b6c0 dbbc 1251 c83d
00000180: e321 b53d 4f97 6b3e 1c08 b53d 5602 3e3e
00000190: 3a1a 763e 6040 c73d 1069 eb3d a392 793e
000001a0: 2f8e fd3d af49 903d e562 213e af0f 1d3e
000001b0: 9963 be3d 7789 513e 0693 bc3d 55be 923d
000001c0: 98bd 333c 92aa c43d 6e4c 493e 3386 383e
000001d0: 92ba 383e 872c 1a3e 1297 3f3e 92be 4e3e
000001e0: 773a 8b3d 34f6 463e 1be8 6d3e 1ecc 5e3e
000001f0: d897 243e 394d 743e 9535 f13d 2149 3b3e
00000200: 6258 c23e 925e 983e 9a03 893e 8172 883e
00000210: f4e5 ba3e a612 873e 8dd4 563e db11 aa3e
00000220: b993 653d 1916 773e 1b60 9f3e efc9 b53e
00000230: 60b6 a03e a245 ab3e dad0 b43e 4a82 883e
00000240: 42c2 1f3e b8a6 433c 91b5 8f3e e34a b63e
00000250: 9162 543e 818d 7d3e db1c b63e 5c5a 24bd
00000260: ce80 8d3e d8c8 833e 08db 9c3e 8f4e 773e
00000270: 68ec 683e 2424 973e 3317 973e 59fa af3e
00000280: 3ffb c13e 9d72 6b3e d5fa 903e 5f25 9f3e
00000290: f30f bc3e 3031 3c3c 20a4 873e 36a9 663e
000002a0: 2b37 3e3e a22e 8c3e a7fb 833e f9ae 933e
000002b0: ba2d 723e d425 ad3e 9144 823e 9880 8e3e
000002c0: 3ee1 803e d6a4 b53e f81f 963e 7ecb af3e
000002d0: 6883 9c3e 36a4 823e 9a60 0a3e b952 713e
000002e0: 8045 803e 583e 683e 4f7d 4e3e b622 793e
000002f0: 00fe f0bb 6ab6 763e 5e6d 9b3e e025 7f3e
00000300: a7b4 6b3e 33d7 bd3e 291b 483e aecc b03e
00000310: 18be a83e 54f2 a2bd ce54 923e 2f70 683e
00000320: 1412 8f3e dfd7 b83e 6215 aa3e a698 b83e
00000330: 9e69 743e 7fe5 69bd e092 c93e 9175 453e
00000340: 89fe 7e3e 12f1 3b3d 68d6 a53e 727e b53e
00000350: fc61 a73e c592 a33e 8fc2 533e 0275 903e
00000360: 599c 853e c45f 8f3e 4c8a 663e f7cb 6e3e
00000370: a9e5 8f3e 909f 863e e81a 25bb 59d3 993e
00000380: c950 973e f6fa 873e 573b 983e ea17 ad3e
00000390: 3e3d a83e 6a57 a73e 2d1e b03e c7a3 823e
000003a0: 582d 753e 0c77 113e a4fc 3e3e 9a01 a43e
000003b0: 7c16 9e3e 66fc 6d3e 1ab9 8f3e 50f8 563c
000003c0: 1847 3ebc 572c 873e 907b b33e ae2f b93e
000003d0: 5788 783e f227 b93e 4f24 8c3e 5a1c 673e
000003e0: 138d b33d dc16 583e 6f52 bb3e 1ca1 8c3e
000003f0: 9b07 933e 391d 773e 429e 973e 4529 a03e
0.24542181 0.11259841 0.10191398 0.19667797 0.16525576 0.18529235 0.20711525 0.1739713
-0.06459497 0.18542284 0.24087404 0.18102561 0.07820109 0.08533261 0.15749615 0.22597446
0.21727405 0.02033043 0.14118531 0.11968444 0.23052587 0.26181138 0.16797642 -0.041307893
0.19728644 0.23766945 0.17503999 0.21586996 0.18880932 0.2423538 0.10468763 0.085495524
0.21969323 0.14737123 0.07560076 0.26061064 0.102794796 -0.042498827 0.17835985 0.23372974
0.08620616 0.1606974 0.19589947 0.20679626 0.12655072 0.124304555 0.11632949 0.106238216
0.11703739 0.17562142 0.21197395 0.16257168 0.18070169 0.22913323 0.20767248 0.16266195
0.16876908 0.21189187 0.15288879 0.12965046 0.076016836 0.24403182 0.24203973 0.17153993
0.08531263 0.2444099 0.12628739 0.19514085 0.16687113 0.04386141 0.21938962 0.16867593
0.09392971 0.1878333 0.18353577 0.24030097 0.17634849 0.05885283 0.19982836 0.25411144
0.17161298 0.058236368 0.14671472 0.13382417 0.07720888 0.23644254 0.22468594 0.110370755
0.2542846 0.2001912 0.23889965 0.21821597 0.19808802 0.1211447 -0.02682529 0.09781088
0.08844354 0.23006938 0.08839437 0.18555579 0.24033442 0.097290754 0.114946485 0.24372344
0.12380635 0.07045304 0.15760382 0.15338014 0.092963405 0.20462595 0.0920773 0.07165209
0.010970496 0.09602846 0.19658062 0.18019943 0.18039921 0.15056048 0.18709973 0.20189884
0.06798261 0.19429857 0.23233072 0.21757552 0.16073549 0.23857583 0.11777798 0.18289615
0.37958056 0.2975965 0.2676056 0.2664986 0.36503565 0.26381415 0.20979519 0.33216748
0.056049082 0.24129523 0.3112801 0.35505626 0.3138914 0.33451563 0.3531559 0.26661903
0.15601447 0.011941604 0.28068212 0.3560401 0.20740725 0.2476101 0.3556889 -0.040125236
0.27637333 0.2573917 0.30635858 0.24151061 0.22746432 0.2951976 0.29509887 0.34370688
0.37886998 0.2299294 0.2831637 0.310832 0.36730918 0.011486337 0.26492405 0.22525486
0.18575732 0.27379328 0.25777933 0.2884443 0.23650256 0.33817923 0.25442937 0.27832484
0.25171846 0.35477322 0.29321265 0.3433494 0.30569005 0.25515908 0.13513413 0.23566712
0.25053024 0.22680032 0.20164989 0.24329647 -0.007354498 0.24093023 0.30356878 0.24916792
0.23018132 0.37078246 0.19541611 0.34531158 0.3295753 -0.07956377 0.28580326 0.22699045
0.2794348 0.36102197 0.3321944 0.36053962 0.23868415 -0.05710363 0.3936987 0.1928313
0.24901785 0.0458842 0.3239014 0.35448033 0.32691944 0.31947914 0.20679687 0.2821427
0.26095846 0.2800275 0.22513694 0.23319994 0.28104904 0.26293612 -0.002519304 0.30044058
0.29553822 0.26558656 0.29732773 0.33807307 0.32859224 0.3268388 0.34398022 0.25515577
0.23943079 0.14205569 0.18651062 0.32032472 0.3087653 0.23240814 0.2807091 0.013120726
-0.01161363 0.26401016 0.35055208 0.3616919 0.2427076 0.36163288 0.2737145 0.22569409
0.08767142 0.2110247 0.3658633 0.27466667 0.2871674 0.24132241 0.2961293 0.31281486

fc2.bias f4 [64]
00000000: 8183 b03d 0f59 b33e 8370 953e 240b bbbd
00000010: 753d 513e 6046 4abd 4e9f a73e e7b5 993e
00000020: 5f67 b13b 6c94 8a3e 014c dc3d 493e 87bd
00000030: 4a24 9b3e 07b1 8a3e e9b1 81bd 6985 9f3c
00000040: 6853 353e aea3 a33c 8fa3 9d3e 5ac6 33bd
00000050: 454a 833e 699e 2d3e e415 4f3e 2714 453e
00000060: 2023 f8bc a075 9a3e 0061 2b3e 5425 a03e
00000070: 0088 cfba 3512 863e 66ff 953e 28c2 53bd
00000080: 4b3f 113c ed79 06bd 69b0 97bd 52cc ab3e
00000090: edf1 863e 28a6 53bd a934 883e 1a08 773e
000000a0: 05f5 3d3e 12fb 5f3e db28 e53c e798 8b3d
000000b0: ffab 2f3e ff04 9e3e b834 5e3d 5f2e 4b3e
000000c0: e018 0e3d 7f81 933e 5e62 223e cca2 283d
000000d0: ee5d 183d 0555 08bc 88aa 633e 2b34 693e
000000e0: a8b7 8f3e d1ec 8c3e e5af bcbd 00df 323a
000000f0: a85c ee3d 5873 14bd 3d4f 963e 6ae5 243e
0.086188324 0.35028884 0.29187402 -0.09132984 0.204336 -0.04938352 0.32738727 0.30021593
0.005413934 0.27066362 0.10756684 -0.06603677 0.30301124 0.27088186 -0.06332762 0.019472795
0.17707598 0.01997551 0.30788848 -0.043890335 0.256426 0.1695496 0.20223194 0.19245969
-0.030290186 0.30167866 0.16736221 0.3127848 -0.0015833378 0.26185766 0.29296416 -0.051698834
0.008865188 -0.03283112 -0.074066944 0.33554322 0.2635645 -0.05167213 0.26602677 0.24124184
0.18550499 0.2187312 0.027973583 0.06816273 0.17155455 0.30863187 0.054249495 0.19841908
0.03469169 0.28809735 0.15857837 0.04117088 0.037198953 -0.0083210515 0.22233021 0.22773807
0.28069806 0.27524427 -0.09213237 0.0006823391 0.116387665 -0.036242813 0.2935733 0.1610314

fc3.weight f4 [16, 64]
00000000: cf2e 69be 459a abbe 5101 61be 80e8 2b3c
00000010: 818b bfbe 7221 e53d e12a 90be a395 b1be
00000020: ee39 923d 9244 8dbe c219 0abe aba1 693d
00000030: f90b d7be 1779 b6be 0054 6e3c d117 ce3d
00000040: b62f 9ebe c30f 833d 0653 b3be 74d4 fdbd
00000050: e34a a2be 9bc7 bfbe 44c0 c5be 9948 bcbe
00000060: b4ba 1e3d 8c9d d1be e289 d1be deb3 7fbe
00000070: 8827 3c3d c032 adbe abe2 9abe 906f 0abc
00000080: 6496 7b3d 88fc f6bd 4091 95bb e1d7 c1be
00000090: 2099 b4be 9062 1ebd 835d 8bbe 47a0 88be
000000a0: 559f abbe a803 a1be b093 1a3c 2093 ec3c
000000b0: 445e adbe 461f d4be ccc0 7c3d 8596 d7be
000000c0: 56de 94bd 684c bbbe 6edf dabe 2358 a53d
000000d0: 8243 ed3d 8c06 ef3c 1d30 9fbe 7065 b7be
000000e0: 9857 c6be 2a52 b5be 1adb ac3d 3c8a 113d
000000f0: 5076 a7be 44bd 413d 373f 5cbe 0bbe bebe
00000100: d774 8bbe 3c10 50be 6a72 d9be 36a7 edbd
00000110: f89a 9fbe 693f 4e3c 9e34 abbe 88e7 85be
00000120: d8b9 59bd 2658 6cbe ff14 4ebe 3b2e 43bd
00000130: e8d8 79be 46c5 c8be 2447 f7bd e081 29bd
00000140: 2d1f b4be 1dbf a9bd 7d32 82be 02df a33d
00000150: 5192 61be 124a 82be bad9 a4be e91f a6be
00000160: a258 d53d 42dd 9cbe 10df 5fbe dce0 b7be
00000170: 0457 eb3d 501d 57be cde0 d7be 40f6 3bbd
00000180: f7c0 98bd b49a debd 0c8a cf3d 0ff1 a5be
00000190: ba0e 94be f846 45bd 8a25 56be b6e8 bdbe
000001a0: e1d3 c4be 9ca5 7cbe cc97 8fbd d08f bebd
000001b0: a5c8 5cbe 770e ddbe 44aa d3bd b810 84be
000001c0: 58ab eabd bbdd a9be 603b dabe a4bd 07be
000001d0: 0005 69bd d320 b23d 30a7 dfbe 8ba2 93be
000001e0: cf89 c9be 7430 e6be 250e 233d 3052 523d
000001f0: 4f49 5ebe 00ca fe39 764e 93be 6f7e aabe
00000200: cbb2 0fbe d4b7 88be a1a1 3fbe e418 863d
00000210: efa3 63be c452 ec3d 4aa0 65be 56b6 bebe
00000220: f869 30bd 756a 9fbe cb62 c2bc e011 69bd
00000230: 5664 92be 2303 40be a4f9 f7bd 9ec0 823d
00000240: 498b 8dbe 20d7 12bc d479 a4be 98e0 bc3d
00000250: 0ed9 5ebe 4a76 a5be ddbf 66be 7dac 22be
00000260: 626a c03d 9517 c0be 411e 5bbe 217d 9ebe
00000270: f4c5 67bd 2b62 a6be f09b 5ebe e412 59bd
00000280: 2874 c7bd a8ac 53bd 0cce b13d bb4f adbe
00000290: 6566 6ebe fe3a acbd c95f 30be c159 74be
000002a0: 9e80 b0be e9c9 a2be 00f2 9eba 5466 83bc
000002b0: 6bda 17be a4f4 58be 7af3 9e3d a23c 93be
000002c0: ec9b e13d 2c98 d2bd a81f 1cbe 1d61 08be
000002d0: 7a5b 8b3d 007c e73d 3e8c 8fbe 3ae8 9bbe
000002e0: dce7 9dbe 26d3 94be d042 5dbd f00d f43c
000002f0: b19d 16be 66bf fe3d 740a b1be 4c41 a5bc
00000300: a3ba 21be 352f acbe 4baf 8ebe d43c 443d
00000310: 69d9 7cbe 8433 c63d 4859 b0be b12a a4be
00000320: 0c89 f7bd 513c dbbe ad56 a5be 4437 173d
00000330: b6d5 a9be 017c a7be 86ce e2bd 7dca b13c
00000340: 91c0 aebe 5e22 083d fcc9 9ebe 9057 983d
00000350: 6bba abbe bbe4 62be 0c7d a3be f29d b3be
00000360: d4d0 4d3d 06ed 87be c559 8cbe 4018 d4be
00000370: e0f0 1b3d fd1d 7ebe c68d 89be 888a 693d
00000380: 062d 693d 56bd d13d 5853 76bd 6ae4 91be
00000390: dddb bbbe a4bf e13d ae5b bbbe 9ae4 cebe
000003a0: e99a ccbe f01f b1be 5cc3 60bd 5d72 4b3c
000003b0: fb11 9ebe 89b1 7ebe a816 ea3c abca 8ebe
000003c0: 0822 90bd 23b5 4cbe 4020 69be e034 9e3d
000003d0: ac09 6dbd 3632 94bd 7b33 bdbe 2e61 dabe
000003e0: 867b dabe 147a 54be c0a1 69bc 9804 df3d
000003f0: 9d71 aabe 8879 efbc 05d4 c1be 102b f7bd
-0.22771762 -0.33516136 -0.21973158 0.010492444 -0.3741112 0.1118802 -0.28157714 -0.34684476
0.071399555 -0.27591377 -0.13486388 0.057038944 -0.42001322 -0.3563926 0.014546394 0.10063136
-0.30895776 0.06399491 -0.3502428 -0.12394038 -0.3169776 -0.37456974 -0.3862325 -0.36774138
0.038752273 -0.4094051 -0.4092551 -0.24970958 0.045936137 -0.33827782 -0.3025106 -0.00844945
0.06142272 -0.12059885 -0.0045644343 -0.37860015 -0.35273075 -0.038668215 -0.2721978 -0.26684782
-0.33519998 -0.31448102 0.0094346255 0.028878748 -0.3386098 -0.4143011 0.061707303 -0.42107025
-0.0726897 -0.3658173 -0.42748588 0.08073451 0.11585142 0.029177926 -0.31091395 -0.35819578
-0.38738704 -0.3541425 0.08440228 0.03553222 -0.32707453 0.04729964 -0.2150849 -0.37254366
-0.2723758 -0.20318693 -0.42470104 -0.116041586 -0.3117292 0.01258836 -0.3343858 -0.26153207
-0.05315575 -0.23080501 -0.20125197 -0.04765151 -0.2439915 -0.39213008 -0.12074116 -0.041383624
-0.35180035 -0.08288405 -0.25429145 0.0800152 -0.22028472 -0.25447136 -0.32197362 -0.3244622
0.10417296 -0.30637556 -0.21862435 -0.35913742 0.11491206 -0.21007276 -0.42163697 -0.04588914
-0.0745868 -0.10869351 0.10133752 -0.32410476 -0.28917485 -0.048163384 -0.20912758 -0.37091607
-0.384429 -0.2467255 -0.07011375 -0.09304774 -0.21560915 -0.43175098 -0.1033521 -0.25794005
-0.114584625 -0.3317698 -0.42623425 -0.13255936 -0.056889534 0.08697667 -0.4368224 -0.28834948
-0.39362952 -0.44958842 0.03980841 0.05134791 -0.21707653 0.00048597157 -0.28770798 -0.33299586
-0.14033048 -0.2670275 -0.18714 0.06547716 -0.22230504 0.11539224 -0.22424427 -0.37248486
-0.04306981 -0.31135908 -0.023728749 -0.056901813 -0.28592175 -0.18751197 -0.12108162 0.06384395
-0.2764533 -0.008962423 -0.32124197 0.09222525 -0.21762487 -0.3231681 -0.22534128 -0.15886112
0.09395291 -0.37517992 -0.2139826 -0.3095484 -0.056585267 -0.3249677 -0.21739173 -0.05299653
-0.09738952 -0.05167833 0.086818784 -0.33849892 -0.23281248 -0.08409689 -0.17224039 -0.23862363
-0.34473127 -0.3179467 -0.0012126565 -0.016040005 -0.14829414 -0.21187073 0.07761283 -0.28757197
0.11016068 -0.10282931 -0.15246451 -0.13318296 0.06804557 0.11302948 -0.28036684 -0.30450612
-0.30840957 -0.29067343 -0.054018795 0.029791802 -0.14708592 0.1243885 -0.34578288 -0.020172738
-0.15793853 -0.33629766 -0.27868113 0.047909573 -0.2469231 0.096777946 -0.34443116 -0.3206382
-0.120866865 -0.42819455 -0.3229269 0.03691794 -0.3317086 -0.32711795 -0.110745475 0.021703
-0.34131292 0.0332359 -0.31013477 0.07438576 -0.33540663 -0.22157566 -0.3193134 -0.3508144
0.050247982 -0.26548022 -0.2741224 -0.4142475 0.038071513 -0.24816127 -0.26865977 0.05701688
0.056927703 0.10241191 -0.060138077 -0.2849458 -0.3669118 0.11022881 -0.36593384 -0.40408784
-0.39961937 -0.3459468 -0.05487381 0.012417403 -0.30873093 -0.24872412 0.028575256 -0.27888998
-0.07037741 -0.19990973 -0.22766209 0.07724929 -0.057870552 -0.072361395 -0.3695334 -0.42652267
-0.42672366 -0.20749694 -0.014259756 0.10889548 -0.33289805 -0.029232755 -0.3785707 -0.120687604

fc3.bias f4 [16]
00000000: 5a96 8bbd 0f76 9abd 51ad e5bd f54c 18bd
00000010: 4f46 74be 7901 3bbe 6272 70be f834 c9bd
00000020: 4742 2bbd eb65 f7bc cd0b cebd c5fd bd3c
00000030: 6c9a 193d 2c23 3e3c 7682 1dbe c1ff 543e
-0.06815787 -0.07542049 -0.11214698 -0.037182767 -0.23854946 -0.1826228 -0.23481134 -0.09824556
-0.041811254 -0.030199965 -0.100608446 0.023192296 0.037500784 0.011605065 -0.15381798 0.20800687
