node_create/dqn_graph_model.pth (torch, 5919 bytes, 6 tensors)

fc1.weight f4 [24, 6]
0	0xbe70f7e3	-0.23532061
1	0xbd90cb10	-0.07069981
2	0xbec4a6ad	-0.38408414
3	0xbe6d98da	-0.2320284
4	0x3e389240	0.1802454
5	0xbea7cb5f	-0.32772347
6	0xbde146ec	-0.109998554
7	0xbeb0dec6	-0.34544963
8	0xbe4995b0	-0.19686007
9	0x3d3852a7	0.0450007
10	0x3e0af7d1	0.13571097
11	0xbe171176	-0.14752755
12	0x3ed2c1a4	0.4116336
13	0x3e98abe6	0.29818648
14	0xbebbdabb	-0.36690316
15	0xbdc5545c	-0.09635231
16	0x3ea42fb6	0.3206765
17	0xbe091398	-0.1338638
18	0x3e12d7a6	0.14340076
19	0xbe80b0bd	-0.2513484
20	0x3ee636fa	0.4496382
21	0xbdd7575c	-0.10514709
22	0xbe39d796	-0.18148646
23	0x3e3141ac	0.17310208
24	0xbe4c0eeb	-0.19927566
25	0x3ea8e75e	0.3298902
26	0x3bef29c0	0.007298678
27	0x3ca7f690	0.020503312
28	0x3eb3caae	0.3511557
29	0x3cc1b220	0.023644507
30	0xbde70fb4	-0.11282292
31	0x3d95cd30	0.07314527
32	0xbe1bc19a	-0.15210572
33	0xbe80f6ce	-0.25188297
34	0x3e94144f	0.28921744
35	0xbc2dd140	-0.010608971
36	0x3dea2bc0	0.11434126
37	0xbe8d534e	-0.2760262
38	0xbdc679d3	-0.09691205
39	0x3e7a109a	0.24420395
40	0x3ea7c049	0.3276389
41	0xbe964663	-0.29350576
42	0xbebbb394	-0.36660445
43	0xbe9d28fe	-0.30695337
44	0xbafb3b00	-0.0019167364
45	0x3ecd64f2	0.40116078
46	0x3eb34206	0.3501131
47	0xbe82f32d	-0.25576153
48	0xbeba5ce6	-0.36399
49	0x3e91b16f	0.28455684
50	0x3d93cc63	0.07216718
51	0x3d284448	0.041080743
52	0xbe52d02b	-0.20587222
53	0xbe92ada7	-0.2864811
54	0x3e36d4c5	0.17854603
55	0x3eb8b483	0.3607522
56	0x3d9e5e28	0.07732803
57	0x3e80ec65	0.25180355
58	0x3c75d96c	0.015005451
59	0xbe9d181d	-0.3068246
60	0x3e88c89f	0.26715562
61	0xbea17ace	-0.31539005
62	0xbe873a9c	-0.26411903
63	0xbe977584	-0.29581845
64	0xbe5c98b2	-0.21542624
65	0x3e8f09b6	0.27937096
66	0x3e48c86e	0.19607708
67	0xbe5fcbef	-0.21855138
68	0xbeb75a8d	-0.35811272
69	0x3e3a895f	0.18216465
70	0xbe7db212	-0.2477496
71	0x3ea3bf92	0.31982094
72	0xbeb2ba6f	-0.34907863
73	0x3e79df5d	0.24401613
74	0x3e95eb6a	0.2928117
75	0xbe324f5e	-0.17413089
76	0x3d030648	0.031988412
77	0x3d853358	0.06503934
78	0xbea1f7fb	-0.31634507
79	0x3ee9e490	0.45682192
80	0xbe877364	-0.26455224
81	0xbd549160	-0.051896453
82	0xbe154b54	-0.14579517
83	0x3e79537c	0.24348253
84	0x3e883035	0.2659928
85	0x3ced0be0	0.028936327
86	0x3e2ab1f1	0.16669442
87	0x3e5139a8	0.2043215
88	0xbe503c84	-0.20335585
89	0xbeba7665	-0.36418453
90	0x3ea3e4e5	0.3201057
91	0x3c9948e0	0.018711507
92	0x3cee2a09	0.029072778
93	0xbec344f5	-0.38138548
94	0x3ebe66ef	0.37187907
95	0x3e9dc144	0.30811512
96	0x3e657022	0.22406057
97	0xbd87d70d	-0.066328146
98	0x3d235e14	0.03988464
99	0x3ed58342	0.41701704
100	0x3df4bca0	0.1195004
101	0x3e930cfa	0.28720838
102	0x3e3c0637	0.18361746
103	0x3d4a9163	0.049455058
104	0xbdc19a7a	-0.09453292
105	0x3d825e2b	0.06365617
106	0xbcc32c7f	-0.023824928
107	0x3ded8338	0.115972936
108	0x3dfb4392	0.122687474
109	0xbe7ab8fa	-0.24484625
110	0xbe3d16a7	-0.18465672
111	0x3e6139cc	0.21994704
112	0x3caff2c6	0.021478068
113	0x3dc59b70	0.09648788
114	0x3de6126b	0.11233982
115	0xbec456d0	-0.38347483
116	0xbe8f8e0a	-0.28038055
117	0xbe60d8aa	-0.21957651
118	0xbe97e0e6	-0.2966377
119	0x3df08140	0.117434025
120	0xbebe5cce	-0.3718018
121	0x3ea865f5	0.32890287
122	0x3eba97f0	0.36444044
123	0xbe0cedcd	-0.13762589
124	0x3dcdb91c	0.100450724
125	0x3d8021a0	0.062564135
126	0x3cc54656	0.02408139
127	0x3e9b69b6	0.3035409
128	0xbc9068bf	-0.017628072
129	0x3ea0f38e	0.31435817
130	0x3d8bc573	0.0682477
131	0x3eae92a8	0.34096265
132	0x3dc2a338	0.09503788
133	0xbeb1923b	-0.34681877
134	0xbe87fda0	-0.26560688
135	0x3de5ccc8	0.112206995
136	0x3e814090	0.2524457
137	0x3e12ad58	0.14323938
138	0xbe1d2cd6	-0.15349135
139	0x3eb3c011	0.35107473
140	0x3a0506ab	0.0005074541
141	0x3dc0e889	0.094193526
142	0x3c90f028	0.01769264
143	0xbe2d72e6	-0.16938362

fc1.bias f4 [24]
0	0xbe3942e9	-0.1809193
1	0x3ccd4729	0.025058346
2	0xbdfc188b	-0.12309369
3	0x3dcfbf1b	0.10143872
4	0xbdf29fba	-0.11846872
5	0xbd20af66	-0.039229773
6	0x3ee81744	0.4533025
7	0xbe3d29a9	-0.18472923
8	0xbdea12f8	-0.11429399
9	0x3ec73bc1	0.38912776
10	0x3e2cbc07	0.16868602
11	0x3ea6d956	0.3258769
12	0xbda54d39	-0.0807137
13	0x3ef8fea4	0.48631775
14	0xbd28c4cd	-0.04120331
15	0x3e36d6de	0.17855403
16	0x3e6b3f3b	0.2297334
17	0x3e9d4d78	0.30723166
18	0x3e231081	0.15924264
19	0xbdf95ab6	-0.12175505
20	0x3e516453	0.20448427
21	0x3e0f8945	0.14017208
22	0xbe21f1b5	-0.1581486
23	0x3ebf35bf	0.37345693

fc2.weight f4 [24, 24]
0	0x3d963d03	0.07335856
1	0xbe39875b	-0.1811804
2	0x3c133b20	0.0089862645
3	0x3c364472	0.011124717
4	0xbdb6db19	-0.08928508
5	0x3c8a27b6	0.016864639
6	0x3e2c90cc	0.1685211
7	0xbd937c99	-0.072014995
8	0x3d3ced93	0.046125006
9	0x3e48cf6d	0.19610377
10	0x3e654f04	0.22393423
11	0xbdd162ed	-0.10223947
12	0x3df417e0	0.11918616
13	0x3e3657e6	0.17806968
14	0xbe0086c9	-0.12551416
15	0x3e3ed066	0.18634185
16	0xbe0e6add	-0.13907953
17	0x3c2b4880	0.010454297
18	0xbe04f9cd	-0.12985916
19	0xbcabced9	-0.020972656
20	0xbd94e485	-0.07270149
21	0xbccb9757	-0.024852438
22	0xbda56dcc	-0.08077583
23	0xbdac2bfe	-0.08406828
24	0xbe2ac880	-0.16678047
25	0x3dc6b3cc	0.09702262
26	0x3e66464d	0.22487755
27	0x3dfbb29a	0.12289925
28	0xbdd9b95c	-0.106310576
29	0x3e318a6c	0.1733796
30	0x3d429af9	0.047511075
31	0xbdba9b6d	-0.09111676
32	0xbdafd8b9	-0.085862584
33	0x3dea527a	0.114415124
34	0xbe1dd958	-0.15414941
35	0x3e6b36e6	0.22970161
36	0x3e62defc	0.22155374
37	0x3cdfeb70	0.027333945
38	0x3d663b24	0.056208745
39	0xbc9c2af8	-0.019063458
40	0x3dfce54a	0.12348421
41	0x3e3b2e75	0.1827944
42	0xbe1221df	-0.14270733
43	0x3cf9f7a5	0.030513594
44	0x3d79625f	0.06088483
45	0xbe091ae4	-0.13389164
46	0x3e3b6a62	0.183023
47	0xbb9aaa60	-0.0047200173
48	0xbd3eb343	-0.046557676
49	0x3dd1d0b8	0.10244888
50	0x3ccf84a6	0.025331806
51	0x3e87652c	0.26444376
52	0xbd31d7f7	-0.04341885
53	0x3d6071be	0.054795973
54	0x3e4cbd07	0.19993983
55	0x3e22cb09	0.15897764
56	0xbdff0ab4	-0.12453213
57	0x3dd50dc9	0.1040302
58	0x3e280c81	0.1641102
59	0xbd01f4ad	-0.03172748
60	0xbde900a3	-0.113770746
61	0x3e7a14d2	0.24422005
62	0x3dc59a5d	0.09648583
63	0xbd10e11c	-0.03537093
64	0x3e709c35	0.23497088
65	0x3c3d13dc	0.011540379
66	0x3e075b61	0.13218452
67	0x3dbb8047	0.09155326
68	0x3e092d8f	0.13396285
69	0x3e0a950b	0.13533418
70	0x3d0e0100	0.034668922
71	0xbe01e9e3	-0.12686877
72	0x3dfe8e20	0.12429452
73	0x3e2e901a	0.17047158
74	0xbcd3a8ab	-0.025837263
75	0xbd560e3e	-0.052259676
76	0x3e69729b	0.22797625
77	0x3da395f3	0.07987585
78	0x3e85df3e	0.26146883
79	0xbd6e8dcb	-0.058240693
80	0x3e5d82b1	0.21631886
81	0x3e52b827	0.20578061
82	0xbca4c4db	-0.0201134
83	0xbd590df3	-0.05299182
84	0x3cdf9849	0.027294295
85	0x3e2d5235	0.1692589
86	0xbdef5f70	-0.11688125
87	0x3e4f205f	0.20227192
88	0x3e80088d	0.25006524
89	0xbd8406aa	-0.064465836
90	0x3dd9a618	0.10627383
91	0x3e3ea93a	0.18619242
92	0xbc76fa8c	-0.0150743835
93	0x3e5d863d	0.21633239
94	0x3e20d564	0.15706402
95	0xbd0f57e6	-0.034995936
96	0xbe56f20f	-0.20990776
97	0x3d9eadaa	0.077479675
98	0xbe05092c	-0.1299178
99	0xbd859ec6	-0.06524424
100	0xbc99203a	-0.018692125
101	0xbd01c6a6	-0.031683587
102	0x3cefd80b	0.029277822
103	0x3d8936e4	0.06699923
104	0x3e6747cd	0.22585984
105	0x3d97239e	0.0737984
106	0x3c9a85e6	0.018862676
107	0xbdea1e39	-0.11431546
108	0x3e7a17bb	0.24423115
109	0x3d4e7b19	0.050410364
110	0x3e8b8ee7	0.27257463
111	0xbdf26c49	-0.1183706
112	0xbdd98cd8	-0.10622567
113	0x3dad9d7d	0.08477304
114	0x3e76e8e3	0.24112277
115	0xbdfb0a73	-0.122578524
116	0x3ce2f3b0	0.02770409
117	0xbd9e726f	-0.0773667
118	0x3d18d593	0.037313055
119	0x3e69ba0b	0.22824876
120	0xbe01afec	-0.12664765
121	0x3c420bf0	0.011843666
122	0xbda6a29e	-0.081364855
123	0xbe17b202	-0.14813998
124	0xbe066e54	-0.13128024
125	0xbb27d200	-0.0025607347
126	0xbd7aa928	-0.061196476
127	0xbd69af0c	-0.057051703
128	0xbd0245c8	-0.03180483
129	0xbbc20960	-0.0059215277
130	0x3de9df38	0.11419529
131	0x3d277a08	0.040887862
132	0xbdaa5412	-0.083168164
133	0x3da83570	0.082133174
134	0x3cb22c50	0.021749645
135	0x3e2c2a56	0.16813025
136	0x3cc24520	0.023714602
137	0xbe3c3e7a	-0.18383208
138	0xbd9f0d14	-0.07766166
139	0xbdb7fd4a	-0.08983858
140	0x3d3de4e0	0.04636085
141	0x3dfed444	0.1244283
142	0xbe4c141f	-0.1992955
143	0xbd07ab28	-0.03312221
144	0xbe2e96b4	-0.17049676
145	0xbe2deaab	-0.1698405
146	0x3dea61f0	0.11444461
147	0xbe2b0b0e	-0.16703436
148	0x3cbe834a	0.023255963
149	0xbd9d7ee6	-0.076902196
150	0x3e70b22c	0.23505467
151	0x3ca40f09	0.0200267
152	0x3d6a06e3	0.057135474
153	0x3e0ac840	0.13552952
154	0x3e61788c	0.22018641
155	0x3dc21416	0.09476487
156	0x3e3c5d7a	0.18395033
157	0xbc022e17	-0.007945559
158	0xbdc969fe	-0.098346695
159	0x3dd104f3	0.10206022
160	0x3e6d035e	0.23145816
161	0x3da6b5fd	0.0814018
162	0xbe00beb0	-0.12572742
163	0xbd84c4d4	-0.064828545
164	0x3db80a21	0.08986307
165	0xbd57738e	-0.052600436
166	0xbdf9096c	-0.1216
167	0xbdc7e9d2	-0.097613946
168	0xbe1edae2	-0.15513185
169	0x3e3ef36e	0.18647549
170	0xbd1ad2f0	-0.037798822
171	0x3d705898	0.05867824
172	0xbdb39df0	-0.087703586
173	0xbda57c9a	-0.080804065
174	0x3d372b2c	0.044718906
175	0xbe3028f0	-0.17203116
176	0x3cbb5e90	0.02287224
177	0xbc49dc80	-0.012320638
178	0x3d992ac0	0.07478857
179	0xbd1548dc	-0.036446437
180	0xbcc85b70	-0.024457663
181	0x3e06d886	0.13168535
182	0xbe479a7a	-0.19492522
183	0xbe4fb563	-0.20284037
184	0x3e44d83e	0.19223115
185	0xbe1bae0e	-0.15203115
186	0xbd8f2764	-0.06989935
187	0xbdfdf005	-0.12399296
188	0xbe311fe4	-0.17297322
189	0xbe4cea50	-0.20011258
190	0xbb07de00	-0.0020731688
191	0x3da9a0f0	0.082826495
192	0x3e1d8c5c	0.15385574
193	0x3c7054c0	0.0146686435
194	0xbe4cdf46	-0.20007047
195	0xbe2b7eb9	-0.1674756
196	0xbe0e1e17	-0.13878666
197	0x3dc54405	0.09632114
198	0xbe42e29e	-0.1903176
199	0x3d472ce8	0.04862681
200	0x3da51896	0.0806133
201	0x3c3ab716	0.01139619
202	0xbe0d0fa8	-0.13775504
203	0xbe59d452	-0.212724
204	0xbd2bf053	-0.041977238
205	0x3e1a8fac	0.15093869
206	0xbe2dcd1d	-0.16972776
207	0xbe66c754	-0.22536975
208	0xbe572887	-0.21011554
209	0x3a28bfbe	0.0006437263
210	0x3d562c28	0.052288204
211	0xbda3116b	-0.079623066
212	0xbd3c9d7d	-0.04604863
213	0xbd40fff4	-0.047119096
214	0xbe2ac843	-0.16677956
215	0x3d9918f2	0.07475461
216	0xbcf7060f	-0.030154256
217	0xbd60a305	-0.054842968
218	0x3e033cb7	0.1281613
219	0xbe3f6215	-0.18689759
220	0x3d0e40b1	0.034729663
221	0x3d91a1ae	0.07110916
222	0xbe2dfb9e	-0.16990516
223	0xbd1c3e3d	-0.038145293
224	0x3db5db16	0.08879678
225	0x3e37f4f1	0.17964531
226	0xbe08811f	-0.13330506
227	0x3c80aa80	0.0157063
228	0x3c0f3571	0.008740769
229	0xbd877a76	-0.066151544
230	0xbe0de578	-0.13857067
231	0x3e369722	0.1783109
232	0x3db9ee2c	0.09078631
233	0xbdcf7cfe	-0.10131262
234	0x3da28fa7	0.07937556
235	0x3d20981d	0.039207567
236	0xbe10e7e7	-0.14150964
237	0xbe275d37	-0.16344152
238	0x3d466c55	0.048443157
239	0x3d443546	0.047902368
240	0x3e221d06	0.15831384
241	0x3d59fd3b	0.053220015
242	0x3e2b54ca	0.16731563
243	0x3e73eaac	0.23819989
244	0x3dbec124	0.093141824
245	0x3dfbf746	0.12303023
246	0xbba78869	-0.005112697
247	0xbdde7ada	-0.10863276
248	0xbe304383	-0.17213254
249	0xbd2f07d5	-0.04273208
250	0x3d5737e0	0.05254352
251	0x3de3352b	0.11094125
252	0x3ddb7ac2	0.107167736
253	0x3dab087c	0.08351228
254	0x3e29c46d	0.16578837
255	0x3cc6fea5	0.024291346

fc2.bias f4 [24]
0	0x3e28994a	0.16464725
1	0x3df85a61	0.121266134
2	0x3e18ca40	0.14920902
3	0x3e01ab94	0.12663108
4	0x3d5ff93b	0.054681044
5	0xbe50bb62	-0.20383981
6	0x3e0c379c	0.13693088
7	0xbde9ba0c	-0.11412439
8	0xbdbba3a6	-0.09162073
9	0xbd6f8e12	-0.0584851
10	0xbd22df23	-0.03976358
11	0x3b67cfd4	0.0035371678
12	0xbd49e917	-0.049294557
13	0xbda87d8d	-0.08227072
14	0xbe2e0ce7	-0.1699711
15	0xbe07a50a	-0.13246551
16	0x3e005a57	0.12534462
17	0xbe24ab1a	-0.16080895
18	0x3da0a4c3	0.07843926
19	0x3dda801e	0.10668968
20	0x3e0b5dfc	0.13610071
21	0xbce2fc20	-0.027708113
22	0x3e1966e7	0.1498066
23	0xbe4cac60	-0.19987631

fc3.weight f4 [6, 24]
0	0x3e16b414	0.14717132
1	0x3db94284	0.0904589
2	0xbe36094c	-0.17776984
3	0xbdfe8ebd	-0.12429569
4	0xbe462a0a	-0.19351974
5	0xbd9c8652	-0.07642807
6	0x3e3926fc	0.18081278
7	0xbe1e7a16	-0.1547626
8	0x3dc0c0d8	0.09411782
9	0xbddf646b	-0.10907825
10	0x3db54be8	0.088523686
11	0xbdb5e860	-0.08882213
12	0x3df18520	0.1179297
13	0xbdd285f8	-0.10279459
14	0x3e29f0a2	0.165957
15	0xbe298531	-0.16554715
16	0xbd6502d4	-0.0559109
17	0x3d587790	0.0528484
18	0xbdea8505	-0.11451153
19	0xbd3d6074	-0.046234563
20	0x3e48bcc4	0.19603258
21	0x3e0d18b0	0.13778949
22	0x3d6c0658	0.057623237
23	0x3cd245a0	0.025667965
24	0xbe816fc2	-0.25280577
25	0xbdad7db0	-0.084712386
26	0xbded1cf4	-0.11577788
27	0xbe66c53f	-0.22536181
28	0xbe07c293	-0.13257818
29	0xbe45e7aa	-0.19326654
30	0xbdb10f4f	-0.08645498
31	0x3c33a180	0.010963798
32	0x3e1d2784	0.15347105
33	0x3df2908e	0.11843978
34	0xbe643740	-0.22286701
35	0x3d9bbec1	0.07604743
36	0xbdb96563	-0.09052541
37	0x3e38bf6a	0.18041769
38	0xbd517b80	-0.05114317
39	0xbe81a951	-0.2532449
40	0x3ce50ac0	0.027959228
41	0x3deceb94	0.115683705
42	0xbe84fbf7	-0.25973484
43	0x3d81a61b	0.0633051
44	0xbe773dd6	-0.24144682
45	0xbe501d32	-0.20323637
46	0x3dacb33d	0.084326245
47	0x3c87d551	0.01658121
48	0xbba7edd8	-0.0051247887
49	0x3d8224f7	0.06354707
50	0xbe23703a	-0.1596078
51	0xbe106e44	-0.14104563
52	0xbe5c6c02	-0.21525577
53	0xbde2e431	-0.1107868
54	0xbe81be3d	-0.25340453
55	0x3e3df1c4	0.18549258
56	0x3de4d5e2	0.111736074
57	0x3dacf55c	0.08445236
58	0x3e09f5a9	0.13472618
59	0xbe0ed554	-0.13948566
60	0xbe7a11e2	-0.24420884
61	0x3d1d6854	0.038429573
62	0xbdc21fd6	-0.094787285
63	0xbd3ed4df	-0.04658973
64	0xbd610d84	-0.05494453
65	0x3e398d6a	0.18120351
66	0x3d230422	0.039798863
67	0xbc9f6082	-0.019455198
68	0xbe75dce1	-0.2401004
69	0xbdac2cc6	-0.08406977
70	0xbdc5557c	-0.096354455
71	0x3daec202	0.08533098
72	0xbe8aefb2	-0.27135998
73	0xbd974bfc	-0.0738754
74	0xbe11b6ba	-0.14229861
75	0x3bce76c0	0.006300777
76	0xbcfa451d	-0.030550534
77	0x3e162fac	0.14666623
78	0xbd935eee	-0.07195841
79	0xbd959756	-0.07304256
80	0x3b4f255c	0.0031607961
81	0x3ddca1db	0.10773059
82	0xbe857518	-0.26065898
83	0xbdb6199b	-0.088916026
84	0x3c0f3c92	0.008742468
85	0x3e43113c	0.19049543
86	0xbd9007c0	-0.07032728
87	0xbe32afaa	-0.17449823
88	0x3dcd6833	0.1002964
89	0xbdfaf1e4	-0.12253168
90	0xbbb3620c	-0.0054743346
91	0xbd94fcc4	-0.07274774
92	0x3d7bcaff	0.06147289
93	0xbe8a91c5	-0.27064338
94	0xbe9288d8	-0.28620028
95	0xbdd75e7f	-0.105160706
96	0x3e194d51	0.149709
97	0xbde94b6e	-0.1139134
98	0xbe1388d0	-0.14407659
99	0xbe39746e	-0.1811082
100	0xbd517de4	-0.05114545
101	0x3d9a3690	0.07529938
102	0x3a8c585c	0.0010707485
103	0xbdb94f6f	-0.09048354
104	0x3da2c3e9	0.07947523
105	0x3dbdb1fa	0.09262462
106	0x3d794018	0.06085214
107	0xbe57f5ea	-0.21089903
108	0xbd6a3685	-0.0571809
109	0xbc24b5c0	-0.010053098
110	0x3e45622e	0.19275734
111	0xbe377165	-0.1791435
112	0xbe3de9ad	-0.18546171
113	0xbe3985a1	-0.18117382
114	0xbe3b920a	-0.18317428
115	0xbe1508ea	-0.14554182
116	0xbe51c1df	-0.20484112
117	0x3daf31c2	0.085544124
118	0xbe4d3a6c	-0.20041817
119	0xbc9751ac	-0.018471561
120	0x3e0c22a8	0.13685095
121	0xbe5a4e54	-0.21318942
122	0xbe77b1ed	-0.24188967
123	0xbd585f21	-0.052825097
124	0xbd210c30	-0.039318264
125	0xbdb74b21	-0.089498766
126	0x3e0f4544	0.13991266
127	0xbde711fe	-0.112827286
128	0x3e110023	0.14160208
129	0x3e1f3731	0.15548398
130	0xbe1e80e8	-0.15478861
131	0xbe2e800e	-0.17041036
132	0xbd9e0309	-0.07715423
133	0xbd7788c8	-0.06043318
134	0xbe4e342d	-0.20137091
135	0xbe0a7a38	-0.13523185
136	0xbe586c9c	-0.21135181
137	0x3b1e5f40	0.002416566
138	0x3e12e4cf	0.14345096
139	0x3da21ead	0.07916007
140	0xbe246678	-0.16054714
141	0x3d469194	0.048478678
142	0xbe220dc4	-0.15825564
143	0x3e068c5a	0.13139477

fc3.bias f4 [6]
0	0x3e26466a	0.16237798
1	0x3dbfde33	0.09368553
2	0x3db80dc2	0.08986999
3	0xbd512a8b	-0.051065963
4	0x3d156936	0.03647729
5	0xbdf795c9	-0.12089116
