node_create/dqn_graph_model.pth (torch, 24175 bytes, 8 tensors)

fc_input.weight f4 [32, 16]
0	0xbd6c78b8	-0.057732314
1	0x3dc8c92c	0.098039955
2	0x3d4153d0	0.04719907
3	0x3e541ac6	0.20713338
4	0xbe32c4dc	-0.17457908
5	0xbd7b88a0	-0.061409593
6	0x3e188c7e	0.14897344
7	0x3e3426d6	0.1759294
8	0x3e4b8226	0.19873866
9	0xbe2e7462	-0.17036584
10	0xbe2e75cc	-0.17037123
11	0x3d976d70	0.073939204
12	0xbe14959c	-0.14510196
13	0xbe6c69c4	-0.23087221
14	0xbcb578a0	-0.022152245
15	0xbdf55e28	-0.119808495
16	0x3e7bf6d6	0.24605879
17	0x3e4bcc65	0.19902189
18	0xbd95e3f6	-0.07318871
19	0x3ec43222	0.38319498
20	0x3e9d9dfe	0.307846
21	0x3e789ddc	0.24278969
22	0x3db5c2f9	0.08875079
23	0x3c91bfb0	0.017791599
24	0xbd2fc44c	-0.042911813
25	0x3e87849e	0.26468366
26	0x3e8a80fd	0.27051535
27	0x3e9614e3	0.2931281
28	0x3ed34a11	0.41267446
29	0x3e79a6f4	0.24380094
30	0x3db98f61	0.090605505
31	0x3e497b1b	0.19675867
32	0x3ed33904	0.41254437
33	0xbd7ae814	-0.061256483
34	0xbe58223a	-0.21106806
35	0x3e3af5c1	0.1825781
36	0xbd9a25f3	-0.075267695
37	0x3ea72d64	0.32651818
38	0xbe1089b4	-0.1411503
39	0x3e4c8a8e	0.1997473
40	0xbe3659dc	-0.17807716
41	0xbe52b4c0	-0.20576763
42	0xbe2edd18	-0.17076528
43	0xbd74a469	-0.059727106
44	0x3e96369a	0.29338533
45	0x3ebc7271	0.36806062
46	0x3e1fe130	0.15613246
47	0x3eb71ed4	0.35765707
48	0x3d02156a	0.031758703
49	0x3cf2935f	0.029611288
50	0x3ecf4f38	0.40490127
51	0xbe26607b	-0.16247742
52	0x3e827c41	0.25485423
53	0x3eaa0f08	0.33214593
54	0x3de2a2c4	0.11066201
55	0x3e3708c7	0.17874442
56	0x3d16291d	0.036660302
57	0x3e076302	0.13221362
58	0xbe1a35fb	-0.15059654
59	0xbe1dacd3	-0.15397958
60	0xbdd940ec	-0.10608086
61	0x3ccb7a6d	0.02483865
62	0xbd825cd7	-0.06365364
63	0x3d47b6da	0.048758365
64	0xbd8eae94	-0.06966892
65	0xbc4caf00	-0.012492895
66	0xbe3b23ec	-0.18275422
67	0x3e4d0aa6	0.20023593
68	0x3e2d19de	0.16904399
69	0x3bc75f80	0.0060843825
70	0x3c718f80	0.014743686
71	0xbe40fa2c	-0.18845433
72	0x3e56c75e	0.2097449
73	0xbe27c8dc	-0.16385216
74	0xbe03786c	-0.12838906
75	0x3a1cb200	0.0005977452
76	0x3e0c12d0	0.13679051
77	0xbe1a521a	-0.15070382
78	0xbd84acf4	-0.06478301
79	0x3de14a54	0.11000505
80	0x3d5e12a6	0.054217003
81	0xbe140af9	-0.1445731
82	0xbbec593f	-0.0072127874
83	0x3db587a4	0.08863762
84	0x3eef3b0b	0.46724734
85	0x3e43099f	0.19046639
86	0x3e498b26	0.19681987
87	0x3e8833bd	0.26601973
88	0xbd6c6fb3	-0.057723712
89	0xbe33f6d0	-0.1757462
90	0xbc54aa77	-0.012980095
91	0x3ed0913f	0.40735814
92	0x3e3a645c	0.18202347
93	0x3ee6c48e	0.45071834
94	0xbdf19403	-0.11795809
95	0x3eacc653	0.3374506
96	0xbc4b77a4	-0.012418661
97	0xbd3e3b8a	-0.0464435
98	0x3e26cee8	0.16289866
99	0x3e9e3ecc	0.30907285
100	0x3e1ab9f9	0.15110005
101	0x3ed5bf8a	0.41747695
102	0x3d9db47e	0.07700442
103	0x3ee57289	0.44813946
104	0x3d865da6	0.06560831
105	0x3e35638b	0.17713754
106	0x3ec10e88	0.377064
107	0x3dd10e0d	0.10207758
108	0x3ec5ce9e	0.386342
109	0x3d92e933	0.071733855
110	0x3e239d24	0.15977913
111	0x3e3137d3	0.17306451
112	0x3ec26b9f	0.37972733
113	0x3ec81848	0.39081025
114	0x3e512c77	0.20427118
115	0x3e838074	0.2568394
116	0x3e5844a0	0.21119928
117	0xbdeeb9bc	-0.1165652
118	0x3eb85706	0.36003894
119	0x3dc582a9	0.09644062
120	0x3ea50fc3	0.32238588
121	0x3e86e999	0.26350096
122	0x3e954745	0.29155937
123	0x3d9236e5	0.071393766
124	0xbd1ad22d	-0.037798095
125	0x3c8eba77	0.017422898
126	0x3cc01139	0.023445712
127	0x3e8c6c0a	0.27426177
128	0x3e84ecf5	0.25962034
129	0x3ea9c688	0.3315928
130	0x3e8312c2	0.2560025
131	0x3e0c9831	0.13729931
132	0x3dd649ed	0.10463319
133	0x3ec4c56f	0.3843188
134	0x3e981774	0.29705393
135	0x3e9ba397	0.30398247
136	0x3e3f1264	0.18659359
137	0x3d884083	0.0665293
138	0x3e67b3db	0.22627203
139	0x3e99d265	0.3004333
140	0x3eb35b35	0.35030523
141	0x3eb6f966	0.3573715
142	0x3ec0c9a4	0.3765384
143	0x3ea67656	0.32512158
144	0x3ea23b83	0.3168603
145	0x3e657aec	0.22410172
146	0x3e81739b	0.25283512
147	0x3ec223e7	0.37918016
148	0x3ee990f5	0.45618406
149	0x3ebe38ac	0.37152612
150	0x3e2c753f	0.16841601
151	0xbc002599	-0.007821464
152	0x3ecd8810	0.4014287
153	0x3eddd7d6	0.43328732
154	0x3e0e7ec3	0.13915543
155	0x3ed07772	0.4071613
156	0x3ec72faa	0.38903552
157	0x3ea56984	0.32307065
158	0x3eec9f88	0.46215463
159	0x3c80e8c0	0.015735984
160	0x3c0eb778	0.008710735
161	0x3ebe1f1b	0.37133107
162	0x3d8144a4	0.0631192
163	0x3edd86e8	0.43266988
164	0xbe279c7d	-0.1636829
165	0x3eb7a0b8	0.35864806
166	0x3dc84d5d	0.09780381
167	0x3e7500d8	0.23926103
168	0x3b2861a2	0.002569296
169	0x3e12aa0a	0.14322677
170	0x3e44117c	0.19147295
171	0xbde0d126	-0.10977392
172	0x3e81b3b0	0.25332403
173	0x3e9f5997	0.3112304
174	0x3e0b0833	0.13577347
175	0x3e9359de	0.287795
176	0x3df275b5	0.11838857
177	0x3e91694f	0.28400657
178	0xbe3280fc	-0.17432016
179	0x3dae12c1	0.08499671
180	0xbe2087d0	-0.15676808
181	0x3eb46406	0.35232562
182	0x3e2215a9	0.15828575
183	0xbe2eee06	-0.17082986
184	0xbe0b9078	-0.13629329
185	0x3efcfda0	0.4941225
186	0x3ec207b1	0.37896493
187	0xbe3cffd8	-0.18456972
188	0xbd91ed13	-0.071252964
189	0x3e5fd773	0.21859531
190	0xbe1cd23e	-0.15314576
191	0x3e8984bf	0.2685909
192	0x3d3289ab	0.04358832
193	0x3e65f419	0.22456397
194	0x3d89b5d8	0.06724137
195	0x3e977500	0.2958145
196	0x3ec04a01	0.3755646
197	0x3e8f56d6	0.27995938
198	0x3ef83c8a	0.48483688
199	0x3df4baae	0.11949669
200	0x3ebc2cad	0.36752835
201	0x3ed01830	0.40643454
202	0x3dd81006	0.10549931
203	0xbb11cf30	-0.0022248738
204	0xbd9b0d42	-0.07570888
205	0x3e0655d2	0.13118675
206	0x3ea31dd2	0.3185869
207	0x3ebb92ad	0.36635342
208	0x3c8043cb	0.015657326
209	0x3eb69f4e	0.35668415
210	0x3ee377ab	0.44427237
211	0xbe589121	-0.21149112
212	0x3ea47431	0.32119897
213	0x3e46d8b9	0.1941861
214	0x3e2bdeed	0.16784258
215	0x3c0b1776	0.00848948
216	0x3ef6227e	0.4807319
217	0x3e3b88cb	0.18313901
218	0x3c08daec	0.008352976
219	0x3ea22dde	0.3167562
220	0x3eb00827	0.3438122
221	0x3edadffc	0.42749012
222	0x3e841deb	0.25804076
223	0x3ebf0415	0.37307802
224	0x3e8e56ec	0.2780069
225	0x3c18ef97	0.009334466
226	0x3ed76468	0.4206879
227	0x3e606236	0.21912464
228	0x3ebb7559	0.36612967
229	0x3ec4f157	0.38465378
230	0x3ee89bc3	0.45431337
231	0x3ec65b35	0.3874146
232	0x3eeb3e5e	0.4594602
233	0x3eec00f6	0.46094483
234	0x3d881942	0.066454425
235	0x3eba31c6	0.363661
236	0x3e60ebbc	0.21964926
237	0x3e6dea9f	0.23234032
238	0x3e829c3c	0.25509822
239	0xbdabeef8	-0.08395189
240	0x3ebfb1a9	0.3744023
241	0x3e4f84c4	0.2026549
242	0x3ebb9843	0.36639604
243	0xbcb5e263	-0.022202676
244	0x3e906e3a	0.28209096
245	0x3e29e51d	0.16591306
246	0x3ee6f62f	0.45109698
247	0x3ed54737	0.41655895
248	0x3eca11d5	0.3946673
249	0x3e64248e	0.2227957
250	0x3ed4fba0	0.41598225
251	0x3ed77470	0.42081022
252	0x3e0b96ff	0.13631819
253	0x3ddaaa68	0.10677034
254	0x3e9eb344	0.30996144
255	0xbca4ee1a	-0.020133067

fc_input.bias f4 [32]
0	0xbe64fe40	-0.22362614
1	0x3ecc17f7	0.39862034
2	0x3e1cf31d	0.15327115
3	0x3e873d3b	0.26413903
4	0xbe677948	-0.22604859
5	0x3e8c52ff	0.2740707
6	0x3ec409a0	0.38288593
7	0x3eee0248	0.46486115
8	0x3ee58fce	0.44836277
9	0x3f0509d6	0.51968133
10	0x3ebd06d1	0.36919263
11	0x3dbbbacd	0.09166489
12	0x3ed76a08	0.42073083
13	0x3ea923f1	0.33035234
14	0x3ec86e22	0.39146525
15	0x3efc28ee	0.49249977
16	0x3e8869b4	0.26643145
17	0x3e14711e	0.14496276
18	0x3e629001	0.22125246
19	0x3e520240	0.20508671
20	0x3e71c927	0.2361189
21	0x3ee93407	0.45547506
22	0x3e85b7fa	0.26116925
23	0xbe694538	-0.22780311
24	0x3f0715d5	0.5276769
25	0x3ef5b95b	0.47992977
26	0x3e3fcf47	0.18731414
27	0x3ea6663e	0.3249988
28	0x3dee8211	0.11645902
29	0x3eff0f1a	0.4981621
30	0x3ed177ed	0.4091181
31	0x3e00234d	0.12513466

hidden_layers.0.weight f4 [64, 32]
0	0x3d663818	0.05620584
1	0x3eb4426e	0.35206932
2	0x3ead3765	0.33831325
3	0x3e1db8d8	0.15402544
4	0x3e2f0581	0.17091943
5	0x3e679a80	0.22617531
6	0x3e9c13f0	0.3048396
7	0x3e8af224	0.27137864
8	0x3eb54d84	0.35410702
9	0x3e8ab654	0.2709223
10	0x3ee58110	0.4482503
11	0x3ec14ed8	0.37755466
12	0x3e36b2cf	0.17841648
13	0x3e81ce22	0.2535258
14	0x3df259e0	0.118335485
15	0x3ed312a6	0.41225165
16	0x3ecb6767	0.39727327
17	0x3e5cebee	0.21574375
18	0x3df18f80	0.117949486
19	0x3e4ce067	0.20007478
20	0x3e314ee6	0.17315254
21	0x3e9da20a	0.30787688
22	0x3ec06328	0.3757565
23	0x3be93400	0.0071167946
24	0x3e844b91	0.25838903
25	0x3e6989c7	0.22806464
26	0x3eb6197b	0.35566315
27	0x3ed50879	0.41608027
28	0x3ea1c9cb	0.31599268
29	0x3ed84df7	0.42246982
30	0x3e73cf33	0.23809509
31	0x3e09f9e4	0.13474232
32	0x3d0ce470	0.034397542
33	0x3e183361	0.1486335
34	0x3e841f27	0.25805017
35	0x3e202cbe	0.15642068
36	0x3e16bc39	0.14720239
37	0x3e44579f	0.1917405
38	0x3e8bef91	0.27331212
39	0x3e8a6f48	0.27038026
40	0x3de82c68	0.11336595
41	0x3e9f544b	0.31118998
42	0x3e4f6b3e	0.20255753
43	0x3e32fa54	0.17478305
44	0x3ecee258	0.40407062
45	0x3ea670e4	0.32508004
46	0x3e5a9fff	0.21350096
47	0x3ea0c13c	0.31397426
48	0x3edc9067	0.4307892
49	0x3ea82c89	0.32846478
50	0x3e24cb15	0.16093095
51	0x3dc14986	0.094378516
52	0x3e9c7b03	0.305626
53	0x3e0b636a	0.13612142
54	0x3e89e656	0.26933545
55	0xbd9d9e65	-0.07696227
56	0x3e5745ff	0.21022795
57	0x3ea88024	0.32910264
58	0x3e94ac8f	0.29037902
59	0x3ecf40bd	0.4047908
60	0x3e6a47d4	0.22878963
61	0x3de54f3d	0.11196754
62	0x3ec8119b	0.39075932
63	0x3df2b1d6	0.11850326
64	0x3e067497	0.13130413
65	0x3e2a0c05	0.16606148
66	0x3df576ae	0.11985527
67	0xbd7ddf28	-0.061980397
68	0x3d08cb38	0.03339693
69	0xbd2119f0	-0.039331377
70	0x3c298fe0	0.010349244
71	0x3e30af67	0.1725441
72	0x3e0399e7	0.12851678
73	0x3daf656e	0.08564268
74	0xbd4cabb0	-0.04996842
75	0x3e2647ed	0.16238375
76	0x3c2e5710	0.0106408745
77	0xbe0739ad	-0.13205595
78	0xbe1f3f1d	-0.1555142
79	0x3d05fd10	0.032712042
80	0xbe10ab84	-0.14127928
81	0xbd675458	-0.05647692
82	0x3e258055	0.16162236
83	0xbdc7e56d	-0.09760556
84	0xbcc11030	-0.02356729
85	0x3cd6b908	0.026211277
86	0xbe183b8b	-0.14866464
87	0x3d8e9bb6	0.06963293
88	0xbe23f768	-0.16012347
89	0xbdb83eac	-0.08996329
90	0x3e2ee467	0.17079316
91	0xbd3848e0	-0.044991374
92	0xbda9fc01	-0.08300019
93	0xbc24f310	-0.010067716
94	0xbd984d10	-0.074365735
95	0xbe007321	-0.12543918
96	0xbda6904e	-0.08132993
97	0x3dc307a0	0.09522939
98	0xbc3b02e3	-0.0114142625
99	0x3d5fc2a8	0.054628998
100	0x3dad018a	0.08447559
101	0x3dc92792	0.098220006
102	0x3e01fa4e	0.1269314
103	0xbca12d00	-0.019674778
104	0xbcd51b01	-0.026013853
105	0xbdbb8bdf	-0.09157538
106	0x3d3ab9ce	0.045587353
107	0x3d3cd984	0.046105877
108	0x3d82db3e	0.063894734
109	0xbe2ac6c8	-0.16677392
110	0xbe136c3a	-0.14396754
111	0xbdc60249	-0.096684046
112	0xbd0c603a	-0.034271456
113	0xbe1f222a	-0.15540376
114	0xbdb3d1cd	-0.08780251
115	0x3d98afa9	0.074553795
116	0xbe0404dd	-0.1289248
117	0x3d89fa8c	0.06737241
118	0x3d0e1774	0.034690335
119	0x3c557e10	0.013030544
120	0xbd0f7261	-0.03502119
121	0x3e2737c0	0.1632986
122	0xbe29f986	-0.16599092
123	0x3de5a082	0.11212255
124	0xbd871edf	-0.06597685
125	0x3e147155	0.14496358
126	0x3cc16fe3	0.023612922
127	0xbe09d2ea	-0.13459364
128	0xbce152b0	-0.027505249
129	0x3e7bab3b	0.24577038
130	0x3e827607	0.25480673
131	0x3e2ce845	0.16885479
132	0x3d179a04	0.037012115
133	0x3ec0eba9	0.37679794
134	0x3e9c8a17	0.30574104
135	0x3e95cd5c	0.2925824
136	0x3e8c7554	0.27433264
137	0x3eb4afb8	0.35290313
138	0x3eb4fe06	0.35350055
139	0x3dfe5c94	0.124200016
140	0x3dad0aee	0.0844935
141	0x3dc92c6a	0.098229244
142	0x3e551d16	0.20811877
143	0x3e44ea7f	0.19230078
144	0x3df05d2f	0.11736523
145	0x3ed52a50	0.41633844
146	0x3ed406a9	0.4141133
147	0x3e5bb3f4	0.21455365
148	0x3ec868d2	0.39142472
149	0x3ed78845	0.42096153
150	0x3e736619	0.23769416
151	0x3d0833b4	0.033252433
152	0x3e455de8	0.19274104
153	0x3ec6ec5b	0.388522
154	0x3ebd7821	0.37005714
155	0x3ec204cf	0.37894294
156	0x3e7439b0	0.23850131
157	0x3ec88572	0.3916431
158	0x3e75f5c5	0.24019535
159	0x3e698740	0.228055
160	0xbd3cb66c	-0.04607241
161	0x3e1653d8	0.14680421
162	0x3da93280	0.08261585
163	0x3eb55c03	0.35421762
164	0xbe2f9889	-0.17148031
165	0x3ed8c0f8	0.42334723
166	0x3ebfc9b0	0.37458563
167	0x3de0d315	0.10977761
168	0x3eb1721f	0.3465738
169	0x3e0a1507	0.13484584
170	0x3e086028	0.1331793
171	0x3e58fd25	0.21190317
172	0x3e601827	0.21884213
173	0x3e282cc6	0.1642333
174	0x3e966361	0.29372695
175	0x3ea60f4a	0.3243354
176	0x3e918416	0.28421086
177	0x3d9db171	0.0769986
178	0x3dbb0467	0.09131699
179	0x3e08f28c	0.13373774
180	0x3da3f125	0.08004979
181	0x3e4d09e7	0.20023309
182	0x3e560e57	0.20903908
183	0xbd347978	-0.044061154
184	0x3dd237a5	0.102645196
185	0x3dee76a5	0.116437234
186	0x3ecc4bc3	0.39901552
187	0x3ec7b902	0.39008337
188	0x3edde0d5	0.43335596
189	0x3e8c03f0	0.27346754
190	0x3eae6402	0.34060675
191	0x3e83c7f3	0.25738487
192	0x3e32df0d	0.174679
193	0x3cb77fd8	0.022399828
194	0x3ca579f0	0.020199746
195	0x3e038171	0.12842347
196	0xbc139610	-0.009007946
197	0xbe182c2a	-0.14860597
198	0x3cd8e3c0	0.026475787
199	0x3df3b5d6	0.11899917
200	0x3dc0c08a	0.09411724
201	0x3e18aa3b	0.14908688
202	0xbd8f34d3	-0.06992497
203	0x3b960aa0	0.0045789033
204	0x3db57d76	0.088618204
205	0xbe0600d9	-0.13086261
206	0xbe1c2774	-0.15249425
207	0xbe1eba29	-0.15500702
208	0xbb67cbc0	-0.0035369247
209	0xbe1a9ba1	-0.1509843
210	0x3bd61d20	0.0065342337
211	0x39550800	0.00020316243
212	0x3d30f98c	0.043206736
213	0xbde74b3b	-0.11293646
214	0x3e1d4f0b	0.15362184
215	0x3d18a5f8	0.037267655
216	0xbe1e14cc	-0.15437621
217	0x3b2b7400	0.002616167
218	0x3d61a02c	0.055084392
219	0x3e0238b7	0.12716947
220	0xbe0b1f44	-0.13586146
221	0x3bfeafa0	0.007772401
222	0xbe03c0fb	-0.12866585
223	0xbe0ff421	-0.14057972
224	0xbd001e6c	-0.031279013
225	0xbd9960e6	-0.07489185
226	0xbc1f9480	-0.009739995
227	0xbdb2d5f8	-0.087322176
228	0xbe2410b8	-0.16022003
229	0xbe1f007c	-0.15527529
230	0xbe0926f5	-0.13393767
231	0xbe143494	-0.14473182
232	0xbddb8c48	-0.10720116
233	0xbd7e24e4	-0.0620469
234	0x3dd08fae	0.10183655
235	0xbe33d0de	-0.17560145
236	0x3e2fd229	0.17170013
237	0xbe0e349a	-0.13887253
238	0xbd7c8c84	-0.061657444
239	0x3e2b6375	0.16737159
240	0xbd04ac74	-0.032391027
241	0xbdc86e57	-0.09786671
242	0x3bf2b440	0.0074067414
243	0x3c72a740	0.014810383
244	0x3d620230	0.055177867
245	0x3e33b227	0.17548428
246	0x3d6555e8	0.05599013
247	0x3e1d4fff	0.15362547
248	0x3d0fa4bc	0.035069212
249	0x3d8d14e8	0.06888753
250	0xbdffca66	-0.12489776
251	0xbdda2c6e	-0.106530055
252	0x3dcb6682	0.09931661
253	0xbe2ad5ff	-0.16683196
254	0xbe1a41a4	-0.15064102
255	0x3d98c266	0.074589536

hidden_layers.0.bias f4 [64]
0	0x3e6ffba6	0.2343584
1	0x3e85c41c	0.26126182
2	0xbe29bc9a	-0.16575852
3	0xbe01a603	-0.12660985
4	0x3eacc205	0.33741775
5	0x3e984dc6	0.29746836
6	0xbdaf0dc9	-0.08547551
7	0xbd823e62	-0.06359555
8	0x3e89c1d5	0.26905695
9	0x3ea8d9b3	0.3297859
10	0x3dd8db97	0.105887584
11	0x3e86d962	0.26337725
12	0x3ea72bd0	0.32650614
13	0x3e9593f9	0.29214457
14	0x3ec07c0e	0.37594646
15	0x3ebaa859	0.36456564
16	0x3e156dad	0.14592619
17	0x3e8ac878	0.2710607
18	0x3ca38136	0.019959074
19	0x3e3c9cd1	0.18419196
20	0xbce8ddc0	-0.028426051
21	0xbd1e7388	-0.038684398
22	0x3ddd13cc	0.107947916
23	0x3eb04e16	0.34434575
24	0x3e013ca1	0.12620784
25	0x3ebc5022	0.36779886
26	0x3ea8febf	0.33006856
27	0x3c8acb5e	0.016942676
28	0x3e9bb85e	0.30414099
29	0x3d5a4120	0.053284764
30	0xbe056656	-0.1302732
31	0x3e0b691d	0.13614316
32	0x3ec85c8d	0.3913311
33	0x3e9ab219	0.30214003
34	0x3e72c572	0.23708132
35	0xbc6ebff0	-0.014572129
36	0xbd9fa370	-0.07794845
37	0x3daf6202	0.085636154
38	0x3e93a9b2	0.28840405
39	0x3e92a2ad	0.28639737
40	0x3e757007	0.23968516
41	0x3e13d148	0.14435303
42	0x3eaa0e8d	0.33214226
43	0xbcc4f530	-0.024042696
44	0x3c618e7e	0.013766883
45	0xbda186f4	-0.078870684
46	0x3e4e0bcc	0.20121688
47	0x3e8b5499	0.2721298
48	0xbdbee95a	-0.09321852
49	0x3e25706f	0.16156171
50	0x3dfd8d23	0.12380435
51	0x3c00f9e4	0.007872079
52	0x3e80e6aa	0.25175983
53	0x3e90dc36	0.28293008
54	0x3e9505d9	0.29106024
55	0x3e8a58bd	0.27020827
56	0x3e919f30	0.28441763
57	0xbe067f7b	-0.13134567
58	0x3dab241e	0.08356498
59	0x3ea4495f	0.32087228
60	0x3e7bf5b8	0.24605453
61	0x3ea3894b	0.31940684
62	0x3e87ec62	0.26547533
63	0x3ed7ded4	0.42162192

hidden_layers.1.weight f4 [32, 64]
0	0x3e415142	0.18878654
1	0x3ec8fb1e	0.39254087
2	0xbc1d6810	-0.00960733
3	0xbd1cef10	-0.038313925
4	0x3eb937af	0.36175296
5	0x3eaaf7a5	0.33392063
6	0x3aaaea80	0.0013039857
7	0xbcf2fc18	-0.029661223
8	0x3e9465de	0.28983968
9	0x3e1c4da2	0.1526399
10	0x3eb0af30	0.34508657
11	0x3e7c1d53	0.24620561
12	0x3e808e7b	0.25108704
13	0x3e890a02	0.26765448
14	0x3e3931e1	0.18085434
15	0x3ec38faf	0.3819556
16	0x3e96a96b	0.2942613
17	0x3e95e44b	0.29275736
18	0x3e9e301c	0.3089608
19	0x3e7993e0	0.24372816
20	0xbcdea6d0	-0.027179152
21	0xbd41fa2b	-0.04735772
22	0x3e504ee4	0.20342594
23	0x3e97be20	0.2963724
24	0x3e90cd05	0.28281417
25	0x3e5c1904	0.21493918
26	0x3eb6ce32	0.3570419
27	0xbd8df9d0	-0.069324136
28	0x3eb835e8	0.35978627
29	0xbd50a5b4	-0.050939277
30	0xbdee797e	-0.116442665
31	0x3eb19f70	0.34691954
32	0x3e2e8f13	0.17046766
33	0x3e362363	0.17786936
34	0x3e8adafd	0.271202
35	0x3b4d7100	0.003134787
36	0x3db08520	0.086191416
37	0x3e213244	0.15741831
38	0x3eb68732	0.3565002
39	0x3e48a54c	0.19594306
40	0x3e68d8ee	0.22739002
41	0x3ea0b01f	0.3138437
42	0x3ea89e83	0.32933435
43	0x3c5e15f0	0.013555035
44	0xbdf47d40	-0.11937952
45	0x3cf1a360	0.029496849
46	0x3ec820c3	0.39087495
47	0x3ebf56a8	0.373708
48	0x3ddf5838	0.10905498
49	0x3db0535d	0.0860965
50	0x3cd835e8	0.026392892
51	0x3dbb5683	0.0914736
52	0x3e8aef2b	0.27135596
53	0x3e63cb51	0.22245528
54	0x3e6debb7	0.2323445
55	0x3ebb916a	0.3663438
56	0x3eaa29dd	0.33235064
57	0xbd4ab082	-0.049484737
58	0x3e770e07	0.24126445
59	0x3e690ced	0.22758837
60	0x3ea93a0b	0.33052096
61	0x3e661da0	0.22472239
62	0x3e7b9090	0.24566865
63	0x3e602719	0.21889915
64	0x3e53b239	0.20673455
65	0x3eab270d	0.3342823
66	0x3db5bcd0	0.08873904
67	0x3dfde319	0.12396831
68	0x3e6427b4	0.2228077
69	0x3ec8dfc0	0.39233208
70	0xbd79b098	-0.06095943
71	0x3d672b48	0.05643776
72	0x3ea31d5b	0.31858334
73	0x3eb3a485	0.35086456
74	0x3e6381f9	0.2221755
75	0x3e637ebb	0.22216313
76	0x3e8b8ce5	0.27255931
77	0x3e8dadf8	0.2767179
78	0x3e399fa7	0.18127309
79	0x3e8a6506	0.270302
80	0x3ebeaae8	0.37239766
81	0x3e916cc5	0.28403297
82	0x3e74b064	0.23895413
83	0x3e824291	0.2544141
84	0xbcaaf510	-0.020868808
85	0xbde75525	-0.11295537
86	0x3e2d58de	0.16928431
87	0x3e4bd9a2	0.19907239
88	0x3e558ee8	0.20855296
89	0x3e9efcf2	0.31052357
90	0x3e3cdbb0	0.18443179
91	0x3d73d15d	0.059525836
92	0x3ec5c16f	0.3862414
93	0x3cb45726	0.022014212
94	0xbc4a51d0	-0.012348607
95	0x3e9974bf	0.29971883
96	0x3ea66f49	0.3250678
97	0x3e883818	0.26605296
98	0x3e25e52b	0.16200702
99	0xbdb58708	-0.08863646
100	0x3c30b334	0.010784913
101	0x3e353570	0.17696166
102	0x3e93a7e5	0.2883903
103	0x3e58e29f	0.21180199
104	0x3ea89560	0.32926464
105	0x3e4338ac	0.19064587
106	0x3e8af055	0.27136484
107	0xbdabd56e	-0.08390318
108	0xbcf2b6eb	-0.029628238
109	0x3da74e68	0.08169252
110	0x3eb51da0	0.35374165
111	0x3ec078ad	0.37592068
112	0x3d4a1e50	0.049345315
113	0x3e46ff6f	0.19433378
114	0x3b8d6af9	0.0043157306
115	0x3e31cc46	0.1736308
116	0x3ea54548	0.3227942
117	0x3e8d19a3	0.27558622
118	0x3ea85405	0.32876602
119	0x3eb9898a	0.36237746
120	0x3eb6f008	0.35730004
121	0xbdedc4d8	-0.116098106
122	0x3e248e21	0.16069843
123	0x3e82aeb6	0.2552392
124	0x3e53a431	0.20668103
125	0x3e637dd4	0.22215968
126	0x3e973730	0.29534292
127	0x3e9dc878	0.30817008
128	0xbd3342c4	-0.043764845
129	0x3d34d578	0.044148892
130	0x3de2148c	0.11039075
131	0xbd6e7438	-0.058216304
132	0x3d421ba0	0.047389627
133	0xbcfc4f50	-0.030799538
134	0xbcc5cf10	-0.024146587
135	0xbd0d2c2c	-0.034465954
136	0x3cc56930	0.024098009
137	0xbd64d53c	-0.05586742
138	0xbd90edd8	-0.07076615
139	0x3dcb47e6	0.09925823
140	0xbd8c97ba	-0.06864877
141	0xbc252bf0	-0.010081276
142	0xbd387bd8	-0.04503998
143	0x3d61ef80	0.055160046
144	0x3daa3c38	0.08312267
145	0x3cc0b3c8	0.023523226
146	0x3cf75480	0.03019166
147	0xbd7fe580	-0.062474728
148	0x3c961a10	0.018322974
149	0xbdd6caf0	-0.10487926
150	0x3dda73aa	0.106665924
151	0xbdbecd24	-0.09316471
152	0x3d598284	0.053102985
153	0x3dece218	0.115665615
154	0xbd6de250	-0.058077157
155	0x3d114650	0.035467446
156	0x3de0f6be	0.10984562
157	0xbda334a0	-0.07969022
158	0xbd870c1c	-0.065941066
159	0x3ddd3ed0	0.10802996
160	0xbbe76e80	-0.007062733
161	0xbda50186	-0.08056931
162	0x3d2d2bc0	0.04227805
163	0x3d04ca10	0.032419264
164	0xbd069724	-0.032858983
165	0xbd83bf04	-0.06432918
166	0xbde0c2b8	-0.1097464
167	0x3dc1b6ec	0.09458718
168	0xbdb28d5e	-0.0871837
169	0xbd868d32	-0.065698996
170	0x3d10e518	0.03537473
171	0x3d5ac1c0	0.05340743
172	0x3ddd91ba	0.10818811
173	0x3d7c0880	0.061531544
174	0xbd16216c	-0.036652967
175	0x3d0ef3f8	0.034900635
176	0xbdf0dfc4	-0.1176143
177	0x3d333688	0.043753177
178	0x3b1ef100	0.0024252534
179	0x3df5fd0a	0.12011154
180	0xbdd9ac90	-0.10628617
181	0x3a2a9500	0.0006507188
182	0x3d0faef4	0.035078958
183	0xbbe37740	-0.006941706
184	0x3d88bbd2	0.06676449
185	0x3d08c378	0.03338954
186	0xbbf255e0	-0.007395491
187	0x3d34e160	0.044160247
188	0xbde38a9a	-0.111104205
189	0xbdedeb90	-0.116171956
190	0xbd9a910a	-0.07547195
191	0xbc38cf80	-0.011279941
192	0x3caeef40	0.021354318
193	0xbd838f6a	-0.064238384
194	0x3b4b6380	0.0031034648
195	0x3db37046	0.08761649
196	0x3d2f9df4	0.042875245
197	0x3d18909c	0.037247285
198	0x3c780bb0	0.015139505
199	0x3d09cab4	0.03364058
200	0xbddc6e88	-0.1076327
201	0xbd91110a	-0.07083328
202	0xbc1ba080	-0.009498715
203	0xbda2d9c8	-0.07951695
204	0xbc733cf0	-0.014846072
205	0xbd40e9c8	-0.04709795
206	0x3cbd17e8	0.023082688
207	0xbdcfe272	-0.10150613
208	0xbdc04bdc	-0.09389469
209	0xbd9a40d8	-0.07531899
210	0xbd6da338	-0.058016986
211	0xbda1f8e8	-0.07908803
212	0xbdc982d4	-0.098394066
213	0x3c8456a0	0.016154587
214	0xbdaa4662	-0.08314206
215	0xbd113378	-0.035449475
216	0x3dfde89c	0.12397882
217	0x3dc80b90	0.0976783
218	0xbd2a5848	-0.041588098
219	0xbd8efd96	-0.069819614
220	0x3dfec2c8	0.12439495
221	0x3c82da28	0.015973166
222	0x3d9e4844	0.07728627
223	0x3d094860	0.033516288
224	0xbc9a2998	-0.018818662
225	0x3dd9e314	0.10639015
226	0x3c834e30	0.016028494
227	0x3cec9958	0.028881714
228	0xbda8d428	-0.082435906
229	0x3d0d6674	0.034521535
230	0x3c79bf30	0.015243337
231	0xbd2d0434	-0.042240337
232	0x3cba5a78	0.022748217
233	0x3dde0c94	0.10842243
234	0x3cbe1c38	0.023206815
235	0xbde93f08	-0.113889754
236	0x3d324814	0.04352577
237	0x3c9d4d40	0.019201875
238	0x3d500e44	0.050794855
239	0x3d5b5768	0.053550154
240	0xbd936a04	-0.07197955
241	0x3cd54d30	0.026037782
242	0xbd531a14	-0.051538542
243	0x3d70b9a0	0.058770776
244	0xbdfc5952	-0.12321724
245	0x3d4d7c74	0.050167516
246	0xbd86af6e	-0.06576429
247	0x3cec1450	0.02881828
248	0x3d87a7ac	0.06623778
249	0xbdbc2bda	-0.091880515
250	0x3d90089e	0.070328936
251	0x3c627df0	0.013823971
252	0xbd98d992	-0.07463373
253	0x3dfb9e98	0.12286109
254	0xbd19f740	-0.03758931
255	0xbd81c1f8	-0.06335825

hidden_layers.1.bias f4 [32]
0	0x3e8ad8a2	0.27118403
1	0x3e5dc711	0.21657969
2	0xbda4dbe8	-0.08049756
3	0xbd961b9e	-0.07329486
4	0xbd076b58	-0.033061355
5	0x3e1d3af4	0.1535452
6	0xbcccc36c	-0.024995528
7	0x3e6301d8	0.22168672
8	0xbdffdefe	-0.12493704
9	0x3e4b9a40	0.1988306
10	0x3da92010	0.082580686
11	0xbde3a257	-0.11114948
12	0x3c90032e	0.017579641
13	0x3e9304c7	0.28714582
14	0x3e4a9187	0.19782077
15	0x3e898787	0.26861212
16	0x3deee444	0.11664632
17	0xbd5dad29	-0.054120217
18	0x3e30e40a	0.1727449
19	0x3dbaef49	0.09127671
20	0xbdef787b	-0.11692902
21	0xbc6ace2d	-0.014331383
22	0x3e3d9310	0.18513131
23	0x3e27dca5	0.16392763
24	0xbd144cdc	-0.03620611
25	0x3e59eaa3	0.21280913
26	0x3e9fd489	0.3121684
27	0x3d5077e1	0.050895575
28	0x3e99f234	0.300676
29	0x3e6c4b79	0.23075666
30	0x3ea240fe	0.3169021
31	0x3e7bc255	0.2458585

fc_output.weight f4 [16, 32]
0	0xbe2c68c0	-0.16836834
1	0xbe65fd97	-0.22460018
2	0xbc0a1300	-0.0084273815
3	0xbcdb3f58	-0.026763603
4	0xbd9cc41f	-0.07654595
5	0xbec034a3	-0.3754016
6	0xbba96bd6	-0.0051703257
7	0xbe4722c7	-0.1944686
8	0x3d60ffa4	0.054931298
9	0xbe5fc4d3	-0.21852426
10	0xbe2f6b07	-0.17130671
11	0xbd3c61ac	-0.045991585
12	0x3c3b8c94	0.011447091
13	0xbe020cc4	-0.12700182
14	0xbec2d3a5	-0.38052097
15	0xbe6a9595	-0.22908624
16	0xbe948ae5	-0.29012218
17	0x3d9d2936	0.07673876
18	0xbd8a3190	-0.067477345
19	0x3dedf7fd	0.11619566
20	0x3e2df4c9	0.1698791
21	0xbe2201b9	-0.1582097
22	0xbe851a03	-0.25996408
23	0xbe3f83b0	-0.18702579
24	0x3e1135af	0.14180635
25	0xbe115135	-0.14191134
26	0xbeaf5df0	-0.34251356
27	0xbe4f1baa	-0.20225397
28	0xbe145504	-0.14485556
29	0xbe01a812	-0.1266177
30	0xbead17ca	-0.33807212
31	0xbeb0aef8	-0.3450849
32	0xbd8a1476	-0.06742184
33	0xbe0057ff	-0.12533568
34	0xbd90dc61	-0.07073284
35	0xbc307400	-0.010769844
36	0x3d455ab0	0.04818219
37	0xbec36c61	-0.38168624
38	0x3e193f55	0.14965566
39	0xbe8118d7	-0.25214264
40	0xbe038d7c	-0.12846941
41	0xbda885f7	-0.08228677
42	0x3d71b82c	0.05901353
43	0xbe2c5993	-0.16831045
44	0x3dddf7f8	0.10838312
45	0xbe854d24	-0.26035416
46	0xbe975650	-0.2955804
47	0xbdfd9207	-0.12381368
48	0xbe7e6e63	-0.24846797
49	0xbcde33e8	-0.02712436
50	0xbe899607	-0.26872274
51	0x3dcfc76d	0.10145459
52	0xbdd9a140	-0.10626459
53	0x3d8f8f6a	0.07009776
54	0xbea9d2cc	-0.33168638
55	0xbeceae8c	-0.40367544
56	0x3e23ba0e	0.15988943
57	0xbdb6e2b2	-0.089299574
58	0xbeb3e095	-0.3513228
59	0xbea86165	-0.32886806
60	0xbdd5302e	-0.1040958
61	0xbd9cf22f	-0.0766338
62	0xbed199b0	-0.40937567
63	0xbe2183d0	-0.15772939
64	0xbedcc714	-0.43120635
65	0xbea547e6	-0.32281417
66	0xbd1c8bc8	-0.038219243
67	0x3d873176	0.06601231
68	0xbdaaaefa	-0.083341554
69	0xbeac4f78	-0.3365438
70	0x3dd3de80	0.10345173
71	0xbddf1465	-0.10892562
72	0x3d848992	0.06471552
73	0xbdd42810	-0.10359204
74	0x3e0b81e8	0.13623774
75	0x3b8c1580	0.004275024
76	0xbe24cf26	-0.16094646
77	0xbec94c86	-0.39316195
78	0xbdcf51b8	-0.101230085
79	0xbe84687c	-0.25860965
80	0xbe514cf3	-0.2043951
81	0x3d3125c4	0.043248907
82	0xbe6c5100	-0.23077774
83	0x3e01310d	0.12616368
84	0x3d3cde64	0.046110526
85	0x3e098942	0.13431266
86	0xbe838c77	-0.25693104
87	0xbdd9929b	-0.10623666
88	0xbd26f584	-0.040761486
89	0xbe973ee9	-0.29540184
90	0xbe3d9496	-0.18513712
91	0xbe4cebc4	-0.20011812
92	0xbe87b228	-0.2650311
93	0xbebeeded	-0.37290898
94	0xbdea97f5	-0.11454765
95	0xbdf26d86	-0.11837296
96	0xbe6d3aba	-0.23166934
97	0xbe08d784	-0.13363463
98	0x3d98c3f6	0.074592516
99	0x3d34ef44	0.044173494
100	0xbd79ce7e	-0.060987942
101	0xbec74eae	-0.38927215
102	0x3d82fd9d	0.06396029
103	0xbec41f26	-0.38305014
104	0x3dfb0176	0.12256138
105	0xbeb87a21	-0.36030677
106	0xbe028af8	-0.12748325
107	0x3af8c880	0.0018980652
108	0x3d69a6c0	0.05704379
109	0xbda9fa0c	-0.08299646
110	0xbeb81ea4	-0.35960877
111	0xbe3f1781	-0.1866131
112	0xbde290a4	-0.11062744
113	0x3de23462	0.110451475
114	0xbdb389e0	-0.08766532
115	0x3dd94477	0.10608762
116	0xbe141904	-0.14462668
117	0x3c3fb0c6	0.011699861
118	0xbeb581cf	-0.354506
119	0xbeb6bc88	-0.35690713
120	0xba70ff00	-0.00091932714
121	0xbd747eb3	-0.059691142
122	0xbe837233	-0.25673065
123	0xbdb231fd	-0.08700941
124	0xbe276ed3	-0.1635087
125	0xbe0323eb	-0.1280667
126	0xbe8e3fed	-0.27783147
127	0xbe9027fa	-0.281555
128	0xbe807669	-0.2509034
129	0xbebafedd	-0.3652257
130	0x3e188b23	0.14896826
131	0x3e2ae66b	0.1668946
132	0x3baff480	0.005369723
133	0xbe1282cd	-0.14307709
134	0x3d1684cd	0.036747742
135	0xbe4acc95	-0.19804604
136	0xbe0cf243	-0.1376429
137	0xbe5314e9	-0.20613445
138	0x3ce0501e	0.027381953
139	0xbcd8d860	-0.026470363
140	0x3c5c624a	0.013451168
141	0xbec3521d	-0.38148585
142	0xbe8b1cfb	-0.27170548
143	0xbeba2ce0	-0.36362362
144	0xbe8169cc	-0.2527603
145	0x3e07a9fd	0.13248439
146	0xbe609633	-0.21932296
147	0xbca58b64	-0.020208068
148	0xbd3287d4	-0.043586567
149	0x3d4d8835	0.050178725
150	0xbdfd574e	-0.12370168
151	0xbe9b95d7	-0.30387756
152	0xbc8fc610	-0.017550498
153	0xbd6bc44f	-0.05756026
154	0xbe942c1e	-0.2893991
155	0xbe046f38	-0.12933052
156	0xbe8a1f90	-0.26977205
157	0xbe17f8f2	-0.14841059
158	0xbe48bfe5	-0.19604452
159	0xbe54d79e	-0.20785376
160	0xbeba2681	-0.363575
161	0xbe7cf4b6	-0.24702725
162	0xbd0f4e88	-0.034987003
163	0x3becbf80	0.007224977
164	0x3d01fb30	0.03173369
165	0xbea4140b	-0.32046542
166	0x3d90ff26	0.07079916
167	0xbe368a88	-0.17826283
168	0x3e18b005	0.14910896
169	0xbe9dde41	-0.3083363
170	0xbe2b0003	-0.16699223
171	0xbd2a99ec	-0.041650698
172	0xbd3dc0fe	-0.04632663
173	0xbe77729b	-0.24164812
174	0xbe80a901	-0.2512894
175	0xbea0a29d	-0.31374064
176	0xbe9d62cb	-0.30739436
177	0xbd3a3fac	-0.04547088
178	0xbe7783f6	-0.24171433
179	0x3d89e86e	0.067337856
180	0x3e05e15d	0.1307425
181	0xbdaaa010	-0.08331311
182	0xbe288774	-0.16457921
183	0xbe0c2a94	-0.13688117
184	0xbc73b040	-0.014873564
185	0xbe055ff6	-0.13024887
186	0xbe4aafda	-0.19793645
187	0xbdee88d2	-0.1164719
188	0xbece9b8d	-0.4035305
189	0xbdf9c7bf	-0.12196302
190	0xbe0bef55	-0.13665517
191	0xbe38d4ff	-0.18050002
192	0xbe8b916f	-0.27259395
193	0xbebcbcdf	-0.36862847
194	0xbe0cad38	-0.13737953
195	0xbe33eea4	-0.17571503
196	0xbd180828	-0.037117153
197	0xbe0e8d7f	-0.13921164
198	0xbd600422	-0.05469144
199	0xbecd769b	-0.4012955
200	0x3e10b7bf	0.14132594
201	0xbe51a18c	-0.20471781
202	0x3e192e3e	0.14959046
203	0x3d112384	0.03543426
204	0xbd95dbb0	-0.07317293
205	0xbd9c298e	-0.076251134
206	0xbeb9f7fa	-0.36322004
207	0xbdaa2e01	-0.08309556
208	0xbe170f63	-0.14751963
209	0x3e105a0f	0.14096855
210	0xbe8d40c0	-0.27588463
211	0x3d311424	0.0432321
212	0x3b76e300	0.0037671924
213	0x3c26fdb1	0.010192321
214	0xbe56694a	-0.20938602
215	0xbe09a000	-0.13439941
216	0x3e1eccd8	0.15507829
217	0xbecd9b1b	-0.401574
218	0xbea791c3	-0.32728395
219	0xbe5a9149	-0.21344484
220	0xbe73c8b8	-0.23807037
221	0xbe5aeb67	-0.21378861
222	0xbe0f0c24	-0.13969475
223	0xbdb4a2fc	-0.08820149
224	0xbeaab372	-0.3334003
225	0xbe46c579	-0.19411267
226	0x3d883d58	0.066523254
227	0x3dc545ee	0.09632479
228	0xbda9ed71	-0.082972415
229	0xbecb0a7f	-0.39656445
230	0xbd971748	-0.073774874
231	0xbe80e40c	-0.25173986
232	0x3e2c6e4f	0.16838954
233	0xbe64449d	-0.22291799
234	0xbe1225e9	-0.14272274
235	0x3d426480	0.047459126
236	0x3d031f00	0.032011986
237	0xbd8a8b97	-0.06764906
238	0xbe863489	-0.26211956
239	0xbd5ef65d	-0.05443417
240	0xbe43abcf	-0.19108509
241	0x3dd93780	0.10606289
242	0xbeb4427c	-0.35206974
243	0x3d4c2f46	0.04984977
244	0x3db58566	0.08863334
245	0x3e2de01d	0.16980024
246	0xbe062566	-0.13100204
247	0xbec468f5	-0.38361326
248	0x3dc187f6	0.094497606
249	0xbe4fd788	-0.20297062
250	0xbe67bcdd	-0.2263064
251	0xbead6c8f	-0.33871886
252	0xbe156dd8	-0.14592683
253	0xbe82625a	-0.2546566
254	0xbe5c3f95	-0.2150863
255	0xbe201b93	-0.15635519

fc_output.bias f4 [16]
0	0xbe84c89a	-0.25934297
1	0xbe81f4f6	-0.25382203
2	0xbe88becc	-0.26708066
3	0xbd49c4b4	-0.049259856
4	0xbd29d704	-0.04146482
5	0xbe56c384	-0.20973021
6	0xbe01aa8f	-0.12662719
7	0xbe9ad679	-0.30241755
8	0xbe66d619	-0.2254261
9	0xbd84c890	-0.06483567
10	0x3cca0864	0.024662204
11	0xbe3386b5	-0.17531855
12	0xbd8e9554	-0.06962076
13	0xbcd78fdb	-0.026313713
14	0xbdf9639f	-0.12177204
15	0xbe0a79f0	-0.13523078
