node_create/dqn_model.pth (torch, 47767 bytes, 6 tensors)

fc1.weight f4 [128, 16]
000000 b2 ef 21 be b6 07 1c be 13 7f f4 3e 3c 1d 86 3e
       -0.15814093 -0.15237316 0.477532 0.2619418
000010 60 db a5 3e 38 99 4d be bc 2e 24 3e f9 51 fc bc
       0.32393932 -0.2007798 0.16033453 -0.030800806
000020 de 06 c1 bd 92 e1 3a 3d 25 6c a8 3d 12 de 20 3d
       -0.09425138 0.045625277 0.08223752 0.039274283
000030 3e 7b 8f 3e 2c 3a 2b 3e 1b 4b d2 3e c0 fe 8f bd
       0.28023714 0.1672141 0.41072926 -0.070310116
000040 20 e1 03 3f e8 17 f7 bd 1f 94 dd 3d 92 59 80 3e
       0.5151539 -0.12065107 0.108192675 0.25068337
000050 72 05 56 3e 6e 5b 85 3e 1e c6 ae bc 72 2d e4 3e
       0.20900515 0.26046318 -0.021334704 0.44565922
000060 fb 75 70 bd fb 6f d6 3e 72 fd 58 be 86 c3 40 3d
       -0.058706265 0.4188231 -0.21190432 0.047061466
000070 10 92 92 3e e6 aa 0d 3d 2b ef 8c 3e 10 c8 c9 bc
       0.28627062 0.03458681 0.2752622 -0.02463153
000080 a0 e3 d0 bd a4 93 c3 3d 24 da aa 3d 2c ba 46 3e
       -0.10199666 0.095496446 0.08342388 0.19406956
000090 ae e5 05 be 1c 23 60 be 8e 77 7d be 68 0a 33 3e
       -0.13075897 -0.21888393 -0.24752638 0.17484438
0000a0 f4 18 99 bd 3c 58 18 be 58 08 28 be e6 80 0e be
       -0.074754626 -0.14877409 -0.16409433 -0.13916358
0000b0 56 26 1f be 84 46 8b 3d c8 b6 cb bd 40 7b fc bd
       -0.15541968 0.06800559 -0.09946972 -0.123281956
0000c0 f9 c7 91 3e 81 b2 c0 3e 4b 66 da 3e e5 76 34 3e
       0.2847288 0.37636188 0.42656168 0.1762348
0000d0 d8 61 c0 3e d1 54 d7 3c ee 33 89 3e 53 a1 62 3e
       0.3757465 0.02628556 0.26797432 0.22131853
0000e0 03 e7 b6 3e b9 78 d5 3e 2f 46 9e 3e 3d d5 d0 3e
       0.35723123 0.41693667 0.3091292 0.40787688
0000f0 9c 8c 8b 3d 42 4f 7f 3e 13 00 c0 3e 86 c8 5f be
       0.068139285 0.24932578 0.37500057 -0.21853837
000100 31 b0 50 bc 1b 83 97 3e c3 5a 1b 39 05 76 74 3e
       -0.01273732 0.29592213 0.00014815763 0.23873146
000110 f0 8e 9d 3e 9b 2c 00 3f 65 56 be 3e 80 3a 9a 3e
       0.30773115 0.5006806 0.3717529 0.30122757
000120 f6 b3 31 3e e2 5c 5d 3e 04 24 20 3e 3f 6f a1 3d
       0.17353806 0.21617463 0.15638739 0.07882547
000130 51 5a 8e 3e a6 d9 f3 3e 5a eb 72 3e 5c 50 02 3e
       0.2780328 0.4762699 0.23722592 0.12725967
000140 4e 35 be 3e 73 84 01 3f da c6 0c be 81 42 1f 3e
       0.37150043 0.50592726 -0.13747731 0.15552713
000150 ac d8 bb 3e ba 43 ad 3e 80 b9 93 3e e1 85 56 3e
       0.36688745 0.33840734 0.28852463 0.20949508
000160 5b 67 0d 3e 5e 71 a0 3e 10 fc 6a 3e 9f de d1 bd
       0.13808958 0.31336492 0.22947717 -0.1024754
000170 7f 14 19 3e 00 bb e9 bd aa de dc bc a0 17 09 3e
       0.14949225 -0.114126205 -0.026961643 0.13387918
000180 43 74 45 3c dc 9c 03 3e 8b 88 b3 3c ed 83 d7 3b
       0.012051645 0.12852806 0.021915695 0.006577006
000190 bc 3e 7b 3e 2c 04 26 3d 37 fe dc 3e ce 41 2f 3e
       0.2453565 0.040531322 0.431627 0.17114946
0001a0 01 67 05 3e b6 7e 8c 3e b8 7a 8c bd 00 b4 b8 3e
       0.13027574 0.27440423 -0.06859344 0.3607483
0001b0 d7 47 4d bb ab e5 bd 3e f3 96 77 3e a0 d2 2c 3d
       -0.0031323337 0.37089285 0.24178676 0.042193055
0001c0 8e d9 41 be 2d ac 05 3f a2 84 d6 3b 0a 7e 7b bc
       -0.18930647 0.52215844 0.006546573 -0.015349874
0001d0 df ab e4 3e af b5 4a 3e b0 ed 02 3f 07 1e bf 3e
       0.44662377 0.1979587 0.5114393 0.37327597
0001e0 c3 93 fc bd 26 08 7c 3e 84 89 43 be 8a d1 b2 3e
       -0.12332871 0.24612483 -0.19095427 0.3492549
0001f0 d7 bc d8 3d cf 4b c2 3e ae 9d 39 be a2 4f 5f 3e
       0.10582893 0.37948462 -0.18126556 0.21807721
000200 98 c0 e8 3e 2b 3e b3 3e 28 13 a7 3e a2 25 cb 3d
       0.45459437 0.35008368 0.32631803 0.09919287
000210 12 de 0c 3e a0 3a 0a bd 94 f2 62 be 9c 3c 38 3e
       0.13756588 -0.033747315 -0.22162849 0.1799187
000220 1d 19 9b 3e b2 dc 2e be 26 a9 1f 3d 2d 76 73 3e
       0.30292597 -0.17076376 0.038979672 0.23775549
000230 13 e3 ce 3d 55 0b ef 3e 33 ac c6 3e 82 2f 22 3e
       0.10101905 0.46688333 0.38803253 0.15838435
000240 d8 9b 94 3d 4a dc 4e be ae 18 74 be f4 06 43 3e
       0.07256287 -0.20201221 -0.2383754 0.19045621
000250 18 2b 70 bd b0 26 d4 3d 8c c2 e6 bd 3c 87 63 be
       -0.058634847 0.103589416 -0.112675756 -0.22219557
000260 80 52 2f bb 80 c6 22 3e 7c 54 8f 3d 4c 2c 48 be
       -0.0026752055 0.15896034 0.06998536 -0.19548148
000270 ba b3 40 3e 3a 1f 74 3e 7c d3 8a bd 8e 37 1b 3e
       0.1881856 0.23840037 -0.06778619 0.15157911
000280 e1 e2 23 ba 35 ee 66 bc 80 c2 b9 3e 3d b5 74 3e
       -0.0006251764 -0.014094879 0.36281204 0.23897262
000290 be f1 f8 3e 10 ff 20 be 06 a7 d3 bb e1 45 d3 3e
       0.48621935 -0.15722299 -0.0064591197 0.4126425
0002a0 5e bf 85 3e 86 7e 51 3e cd 4c d1 3e c2 96 b7 3e
       0.26122564 0.20458421 0.40878907 0.35857207
0002b0 f0 65 90 3e 28 c9 22 bc 3f e1 d4 bd 54 0b cf bd
       0.28202772 -0.009935655 -0.10394525 -0.101095825
0002c0 43 f6 c6 3e 96 58 98 3d 24 40 67 3e e5 a7 f2 3e
       0.38859758 0.074387714 0.22583061 0.47393718
0002d0 40 f0 44 3e 08 8c 97 3e 89 56 b3 3e 24 5c be 3d
       0.19232273 0.29599023 0.3502696 0.09294918
0002e0 47 46 d9 3e a0 21 6f bc 85 ac ae ba ba ca eb b9
       0.4243643 -0.014595419 -0.0013326561 -0.00044973736
0002f0 71 a3 2c b6 90 f7 cc 3e 00 c2 da 3e 18 4e 20 bd
       -2.5725133e-06 0.40032625 0.42726135 -0.039136976
000300 72 04 e0 3d 27 c2 b4 3b 45 8d 38 bd dd 4d e8 3e
       0.10938348 0.005516309 -0.0450566 0.45371905
000310 c9 39 5b be e8 58 0e 3d 1b b5 1a 3d b5 26 b6 3c
       -0.21408762 0.034752756 0.037770372 0.022235254
000320 cf 9c aa 3e 02 20 3c 3c d9 fa 92 3e 4a 89 d7 3e
       0.3332276 0.011482241 0.28707007 0.4209693
000330 65 64 8b 3e e6 43 b9 3e 2c 05 ae 3e da 2b 00 be
       0.27225032 0.36184615 0.3398832 -0.12516728
000340 8b fb cc 3e 78 35 7d be ec 33 87 3e 50 9a d3 3e
       0.40035662 -0.24727428 0.264068 0.4132867
000350 c7 09 12 3e c3 2d 8f 3e 9b 49 a0 3e 46 7f 75 be
       0.14261542 0.279646 0.31306157 -0.23974332
000360 54 b3 5b 3d 78 e1 f5 3c 15 18 ec 3e eb 64 5b 3c
       0.053637818 0.030014738 0.46112123 0.01339076
000370 d1 a5 7b 3e 67 bc ae 3d 59 39 b7 3e 32 b8 60 3e
       0.24574973 0.08532029 0.3578594 0.21945265
000380 a5 da 89 3e 17 e4 ee bd 5e cd ab bd e7 f6 3d be
       0.26924625 -0.116645984 -0.0838878 -0.18551217
000390 a9 b3 da 3d c7 25 2a be d1 53 7e 3d 1e c4 31 3e
       0.10678799 -0.16615973 0.062091652 0.17359969
0003a0 ef 61 84 3d 9c 7a df 3e ef 92 08 3e ea 2a e6 3d
       0.06463992 0.4364823 0.133373 0.11238654
0003b0 23 61 93 3e 7a 36 04 3d d4 09 67 3e d4 9d 78 3e
       0.28785047 0.032278515 0.22562343 0.24278957
0003c0 d4 28 b8 3e a0 37 82 3e 44 79 04 3f 57 28 8c bd
       0.3596865 0.25433064 0.51747537 -0.06843632
0003d0 6d f0 74 3c 7f 16 7b 3e fd 8d ea 3e 3b 0d b4 3e
       0.0149499 0.245203 0.45811453 0.35166344
0003e0 02 e1 8a bb 53 9f 92 3e 93 92 67 3e 07 5b 95 3e
       -0.004238249 0.2863718 0.22614507 0.2917101
0003f0 7a 35 86 3c 73 07 9b bd a9 83 1d 3e 6c 1c 84 bd
       0.016382921 -0.0756978 0.15382256 -0.064507335

fc1.bias f4 [128]
000000 05 c4 c6 3d 7a 35 f5 3d 0c 78 74 be cc 5b f7 3e
       0.097053565 0.119730905 -0.23873919 0.48312223
000010 15 c6 df 3e 51 f6 7d 3e 3c da e2 3e de cb f4 3d
       0.43705812 0.24800994 0.44307125 0.11952947
000020 23 f1 ee 3d 4a 9f 78 be 39 b8 a5 3e f8 20 04 3f
       0.11667087 -0.24279514 0.32367113 0.51612806
000030 6c b0 2f 3e 46 04 30 3e 53 2a b0 3e 85 25 b7 3e
       0.17157143 0.1718913 0.3440729 0.35770813
000040 a9 4b d7 3e 18 62 cb 3e 75 71 f1 3e a0 2a d9 3e
       0.42049912 0.39723277 0.47156873 0.42415333
000050 6b f9 97 3e 93 0b 72 3e 63 e2 56 bb 89 09 7c 3e
       0.29682478 0.23637228 -0.0032788746 0.24613012
000060 c4 79 ad 3e cb e1 36 3e 2a f3 da 3e 7e c6 6e be
       0.33881962 0.1785957 0.42763644 -0.23317906
000070 90 44 c4 3e 11 44 08 3f 15 37 71 3e 8f 13 4d 3e
       0.3833356 0.5322886 0.23556168 0.20026992
000080 f2 cb a7 3e 36 65 70 be 17 72 5f 3e b1 2d f6 3e
       0.32772785 -0.23476109 0.21820866 0.48081735
000090 20 88 5f 3e d3 89 b8 3e 6f 16 1e 3e 71 c2 55 3e
       0.21829271 0.36042652 0.15438245 0.20874955
0000a0 55 bb e2 3e 3e 2f 02 3f 62 04 c4 3e fb a4 99 3e
       0.44283548 0.50853336 0.38284594 0.30008683
0000b0 d4 22 32 3e 6d a6 7f 3e fe d9 99 3e 44 fc 90 3e
       0.17396098 0.2496583 0.30049127 0.28317463
0000c0 2d 8b 8d 3e 70 bb ba 3e 8a e5 51 3e 73 eb d8 3e
       0.27645245 0.36471128 0.20497718 0.42367133
0000d0 c1 3c 2f 3e 46 5d 42 3e 05 a3 ec 3e af f5 cf 3d
       0.1711302 0.18980893 0.46218124 0.10154282
0000e0 ef 6f b7 3e 0e c2 8b 3e 3e 45 b2 3e 49 84 28 3e
       0.35827586 0.2729649 0.34818453 0.16456713
0000f0 8e 02 67 3e eb 82 05 3f 7f 1b 7f 3e ea b7 52 be
       0.22559568 0.5215289 0.24912833 -0.2057797
000100 56 a8 70 be 1a 9c e6 3d ce 7d d1 3e e5 78 01 3f
       -0.23501715 0.11260243 0.40916294 0.50575095
000110 16 57 7a 3e 7d 32 c1 3e 6a 9f 5f 3e fc 21 86 3e
       0.24447283 0.37733832 0.21838155 0.26197803
000120 8f fe f0 3e 6d 98 08 3f d2 53 ed 3b 79 5a 2c 3e
       0.47069213 0.53357583 0.007242658 0.16831388
000130 56 ae af 3e cf 52 c8 3e 8b 7f 76 3e ca 7d 26 be
       0.34312695 0.39125678 0.24072091 -0.16258922
000140 34 bc 9f 3e 6b 32 91 3e 0e d1 d4 3e 8a b0 e3 3e
       0.31198275 0.28358778 0.41565746 0.44470626
000150 ad 32 f6 3d 34 1e 45 be bc 25 a4 3e 41 de 9b 3e
       0.120213844 -0.19249803 0.3206004 0.30443004
000160 93 e9 9e 3e 4b 3b 64 3e 00 3f 9a 3e a2 94 97 3d
       0.31037578 0.22288243 0.3012619 0.07401396
000170 d2 5f f6 3e 60 08 d5 3d 1f eb 66 3e cf 95 06 3f
       0.4811998 0.10401988 0.22550629 0.5257234
000180 b7 f0 27 3e d2 8f ba 3e f6 7b 02 3e 30 0c b0 3e
       0.16400419 0.3643785 0.127426 0.34384298
000190 d9 14 b7 3e 86 db e6 3d dc 53 f2 3e 7b 99 c3 3e
       0.35758093 0.112723395 0.47329605 0.38203034
0001a0 62 78 c1 3e 89 f8 f2 3e 06 fb cd 3d 9a d7 02 3f
       0.37787157 0.47455242 0.100576445 0.5111023
0001b0 44 6e bc 3e bc 1a 08 3e a6 8a 04 3f 7c fb 9d 3e
       0.36802876 0.13291448 0.5177406 0.3085593
0001c0 43 75 5b 3e ec 1c b3 3e 87 6e b9 3e 48 86 dc bc
       0.2143145 0.34983003 0.36217138 -0.026919499
0001d0 57 db fc 3e 2b 4f e6 3e 13 45 d2 3e 06 45 91 3e
       0.49386093 0.44982275 0.41068324 0.28372973
0001e0 b4 4e 98 3e 1c df c7 3e e3 29 0e 3e f9 e0 c4 3d
       0.29747546 0.39037406 0.13883166 0.09613223
0001f0 f7 4d d2 3e 30 22 7c 3e ae e2 06 3f a0 f9 7a 3e
       0.41075107 0.24622416 0.52689636 0.24509287

fc2.weight f4 [64, 128]
000000 2a f6 46 3d e7 ed 62 bd 4c c5 0a 3d 95 b7 63 bd
       0.048574604 -0.055402663 0.033879563 -0.055595
000010 75 ad 8b 3d 9c ef fe 3c 4e b7 32 3d 0b 57 a7 bd
       0.06820194 0.031120114 0.043631844 -0.08170899
000020 10 67 fc bb 25 19 b2 3d 1a 8f a3 bd 00 af bf ba
       -0.0077027157 0.08696202 -0.07986279 -0.0014624298
000030 46 78 f8 bc 48 96 4c bc 1e 03 72 bd 7a 40 96 bd
       -0.030330788 -0.012487002 -0.059085004 -0.07336517
000040 fd 6e ad 3d 1c 2f 9b 3c ed c1 a7 bd a6 38 29 3d
       0.08468435 0.018943362 -0.08191285 0.04131379
000050 20 a3 36 bc 25 fd 9f 3d 38 38 15 bd c2 ef 97 bd
       -0.0111472905 0.07811955 -0.036430568 -0.07418777
000060 30 02 d2 bb 90 5d ba 3b 60 0e 45 3b 9b 53 94 bd
       -0.006408952 0.005687423 0.0030068383 -0.07242509
000070 18 1a b4 bc cc d9 8f bc ba db 4e 3d 20 ac a4 bd
       -0.021985099 -0.017559908 0.050502516 -0.08040643
000080 c5 48 ab bd 57 4e 94 3d 6f 1d 8e 3d c6 e2 40 3d
       -0.08363489 0.07241505 0.06939208 0.047091268
000090 01 4b a7 bd e8 c5 01 bc 28 40 7d bd b9 78 55 bd
       -0.08168603 -0.00792072 -0.061828762 -0.052117083
0000a0 81 86 09 bd 91 80 99 3d 9f f6 36 bd 64 5c d3 bc
       -0.03357554 0.07495225 -0.04466879 -0.025800891
0000b0 68 1f 8a bd e6 9a 79 bd 8c 1e 9d bc 38 28 90 bc
       -0.067442715 -0.06093874 -0.019179605 -0.017597303
0000c0 c6 80 19 bd c1 8b 9d 3d c8 a6 c6 3c 9c 30 bf bc
       -0.037476324 0.076926716 0.02424945 -0.023338608
0000d0 77 36 86 3d eb 78 b2 bd 5d 87 82 bd 1c 5a a9 3c
       0.06553357 -0.087144695 -0.06373475 0.02067285
0000e0 b2 86 31 3d 00 ac 4e bb 48 af b5 bc 02 7c 5b bd
       0.043341346 -0.0031535625 -0.022178307 -0.05358506
0000f0 3c 37 c6 bc 00 d8 99 38 e6 2c 31 bd 10 e3 d7 3c
       -0.02419626 7.335842e-05 -0.04325571 0.026353389
000100 6a 30 32 3d 06 f5 21 3d 90 f0 dd bc 40 05 94 bc
       0.043503202 0.039540313 -0.027092248 -0.01806891
000110 c5 51 a7 3d d2 3d 22 3d 20 3b 77 bc 13 4b 8d bd
       0.08169893 0.039609738 -0.01508978 -0.06899085
000120 85 85 89 bd 00 86 2c bd d0 1a 2d bd 8d db b2 bd
       -0.0671492 -0.04211998 -0.0422619 -0.08733282
000130 f8 e1 71 bc e5 89 ab bd 45 da 8e bd 47 43 1b bd
       -0.014763348 -0.08375911 -0.06975225 -0.037905958
000140 12 01 6d 3d c8 ca b2 3c 46 93 b0 bd 40 d1 17 bc
       0.05786235 0.02182521 -0.0862184 -0.009266198
000150 30 f5 c2 3c c0 be 07 3d 06 36 62 bd 02 a7 a2 bd
       0.023798555 0.033140898 -0.055227302 -0.079420105
000160 d9 4e a0 bd 30 f9 44 bd 56 14 ad bd c6 f4 ad bd
       -0.07827539 -0.048089206 -0.084511444 -0.084939525
000170 2e 3a 44 3d 30 4a b5 bb 8a 64 36 3d 1c a7 74 bd
       0.047907047 -0.0055325255 0.044529475 -0.05972968
000180 70 04 3e bc 20 8b 8a bb c4 95 0a 3d 83 93 99 bd
       -0.011597738 -0.004228011 0.033834234 -0.07498839
000190 d0 2f 88 3c 28 b0 b5 3c 49 2c b4 3d 40 53 bf 3c
       0.016624361 0.022178724 0.08797509 0.023355126
0001a0 e7 fb 83 3d 5a 8b 25 bd d0 35 98 bb ae 71 6d bd
       0.06444531 -0.0404161 -0.004645087 -0.05796974
0001b0 78 79 0a 3c 77 4e 86 bd 60 3a 2d bb c0 fa 0b 3b
       0.008451812 -0.06557935 -0.00264325 0.0021359175
0001c0 64 59 ab bc 04 9c f5 3c 40 f3 a0 3c ee 0f 6c bd
       -0.020916648 0.02998162 0.01964724 -0.05763238
0001d0 84 04 c8 3c ac 3f 97 3c 9a 74 03 3d e0 97 67 3b
       0.024416216 0.018462978 0.03209362 0.0035338327
0001e0 68 85 4b bd 19 80 8d bd 83 95 94 bd c4 bf d4 3c
       -0.049687773 -0.06909198 -0.072550796 0.025970347
0001f0 ac 96 88 bd 92 db 77 3d b0 3b 08 3c ce 74 17 3d
       -0.066693634 0.060512133 0.008315012 0.036976628
000200 04 2d 6e 3e 43 7b 99 3e 74 ee 8a bc c1 01 3a 3e
       0.2325936 0.29976854 -0.016959406 0.18164732
000210 07 34 43 3e ae 3a 9e 3e 4c 22 37 3e 83 54 a6 3e
       0.19062816 0.30904144 0.17884177 0.32486352
000220 12 c1 6f 3e 90 f3 c1 3c 80 20 a9 3e 22 7f 83 3e
       0.23413494 0.02367571 0.33032608 0.25682932
000230 5c cd a2 3e 0a ff b6 3e 16 31 6e 3e 0e 6f 64 3e
       0.31797302 0.35741454 0.23260912 0.22307989
000240 c9 c5 61 3e 72 29 94 3e bb 12 64 3e 2a b6 ab 3e
       0.22048105 0.2893787 0.2227277 0.33537418
000250 90 63 54 3e e1 eb 31 3e 61 08 9b 3e e6 99 6a 3e
       0.20741105 0.17375137 0.3027983 0.2291027
000260 17 ee ab 3e 21 76 7d 3e 89 7d 6d 3e b2 ca 15 3d
       0.33580086 0.24752094 0.23192419 0.03657026
000270 54 bc 5e 3e 6b 18 87 3e 2f b9 82 3e 99 ed 50 3e
       0.21751529 0.26385817 0.2553191 0.20403136
000280 9a 65 9a 3e f5 ee 1e bd 06 72 96 3e 0b b2 9a 3e
       0.3015564 -0.038802106 0.29383868 0.3021396
000290 79 65 85 3e 29 d1 73 3e 0e 87 28 3e ca 2e 56 3e
       0.2605398 0.23810257 0.1645777 0.20916286
0002a0 38 a4 a8 3e e6 b2 4a 3e fa 47 89 3e f2 d2 9b 3e
       0.3293779 0.19794807 0.26812726 0.30434376
0002b0 14 f3 95 3e cf 45 4d 3f a1 11 9d 3e 8f 8e a4 3e
       0.29287016 0.80184644 0.30677512 0.32140014
0002c0 e1 16 b2 3e ff ac be 3e a6 70 8d 3e 61 32 3c 3e
       0.3478308 0.3724136 0.27625006 0.18378593
0002d0 f8 e8 8f 3e bc bc aa 3e e9 2f 92 3e b0 58 91 3e
       0.2810743 0.33347118 0.28552178 0.28387976
0002e0 15 8a 97 3e cd ca 49 3e e5 17 a3 3e f0 8c 6c 3e
       0.29597536 0.19706269 0.31854168 0.23100638
0002f0 6a 13 7e 3e ee d8 84 3e 15 49 46 3e c1 ae 5d bd
       0.24812093 0.25946754 0.19363816 -0.054121736
000300 78 16 99 bc d7 f1 8c 3e 16 28 79 3e 0e a4 a1 3e
       -0.018687472 0.2752826 0.24331698 0.31570476
000310 7c c5 3d 3e 46 d0 95 3e 67 ef 57 3e bc e2 82 3e
       0.18532366 0.29260463 0.21087418 0.2556361
000320 dd b6 a5 3e 13 9d 61 3e af 4b 38 3e 47 0c 86 3e
       0.32366076 0.22032575 0.17997621 0.26181242
000330 c6 68 39 3e 58 a2 94 3e b6 95 9d 3e 1c 1d a4 bc
       0.18106374 0.29030108 0.30778283 -0.020033412
000340 3f ad 8f 3e 38 99 99 3e 52 24 5b 3e 7d 2e a9 3e
       0.28061864 0.2999971 0.21400574 0.3304328
000350 52 44 b7 3e a6 7d 76 3d c3 5a ae 3e bb 46 aa 3e
       0.35794312 0.06017842 0.3405362 0.33257088
000360 e7 38 4a 3e 4f ab 47 3e d4 fe 42 3e f1 59 79 3e
       0.19748269 0.19498943 0.19042522 0.24350716
000370 c0 2c 76 3e 25 ec 7a 3e 57 ea 2a 3e ed d1 9e 3e
       0.24040508 0.24504144 0.16690956 0.31019536
000380 2c 1b 7a 3e 1d 4c 85 3e ca 5e 88 3e d7 3a 49 3e
       0.24424428 0.26034632 0.26634818 0.19651352
000390 7f 09 94 3e 37 bf 97 3e 8d d3 94 3e 42 f5 94 3e
       0.28913495 0.29638073 0.2906765 0.29093367
0003a0 79 12 b9 3e 8f f3 5a 3e 6f 96 a1 3e a5 85 3c 3e
       0.36146906 0.21381973 0.31560084 0.18410356
0003b0 78 9c 95 3e f8 26 ad 3e ae 1a 58 3e f3 e4 91 3e
       0.2922094 0.33818793 0.21103927 0.28494987
0003c0 a0 3f 90 3e ae e7 a2 3e ff af 66 3e 8f 0d 1e 3e
       0.28173542 0.31817383 0.22528075 0.1543486
0003d0 06 89 a7 3e c5 2b 38 3e c1 c2 97 3e ae fc 6f 3e
       0.32721728 0.17985447 0.29640773 0.23436233
0003e0 96 d2 96 3e 3a a2 53 3e b2 0d 81 3e 2d 9f af 3e
       0.2945754 0.20667353 0.2520576 0.3430113
0003f0 77 2c 7a 3e a9 4f a5 3e 48 aa 75 3e 3a 17 a3 3e
       0.24431024 0.32287338 0.23990738 0.31853658

fc2.bias f4 [64]
000000 30 e0 a4 bd 2a 8f 50 3e e4 a2 8d bd 9d 08 78 3e
       -0.08050573 0.20367113 -0.069158345 0.24222036
000010 d6 f2 51 3e e5 d0 4c 3e 24 6c 68 3e 31 45 a0 3c
       0.20502791 0.20001562 0.22697502 0.019564243
000020 70 74 bc bb cc 36 18 3e df 0a 58 3e 2a cf 32 3e
       -0.005751185 0.14864653 0.21097897 0.1746184
000030 52 2c 53 bd f9 ce 42 3e d9 6a 98 bd db 62 80 3e
       -0.05155594 0.19024266 -0.074422546 0.2507542
000040 6a 1a 94 3e 52 47 65 3e 09 f7 23 3e 77 bc 62 3e
       0.28926402 0.22390488 0.16012205 0.22142206
000050 59 fd 4d 3e cc b5 80 3e 3b e1 a1 bd a6 0b 8d 3c
       0.20116176 0.251387 -0.079042874 0.017217468
000060 5b 59 49 3e 9b 70 56 3e 65 ff 9a bd 01 89 99 3e
       0.19662993 0.20941393 -0.07568244 0.29987338
000070 30 11 82 3e 0a 25 63 3e 1d f8 3f 3e f4 87 a0 3e
       0.25403738 0.22182098 0.18746991 0.31353724
000080 b5 85 c3 bd 75 1c 83 3e 29 c0 46 3d 88 4d a4 bc
       -0.09546987 0.25607648 0.048523102 -0.020056501
000090 75 77 8e 3e bb 4e 17 3e bf 5b 16 3e 8e 7d 8c 3e
       0.27825513 0.14776127 0.14683436 0.2743954
0000a0 b8 c6 81 3d 0a e0 a0 3e 2a f0 8d 3e a2 80 51 bd
       0.06336731 0.31420928 0.27722293 -0.051148064
0000b0 b0 9d ca bc 5d 5d 87 bd fb 91 84 3e 38 1c 93 3e
       -0.024733394 -0.066096045 0.25892624 0.28732467
0000c0 b1 a4 6e 3e c9 1e 8b bd cb 9f 98 bb b5 17 49 3e
       0.23305012 -0.06792981 -0.0046577207 0.1963795
0000d0 d6 c7 17 3e 3e 14 33 3e 3a 3d 3b 3d 35 8e 9a 3e
       0.14822325 0.1748819 0.045712687 0.3018662
0000e0 e1 3c 73 3d 5b e2 88 bd 6d af 2e 3e 15 a2 53 3e
       0.05938423 -0.06683799 0.17059107 0.20667298
0000f0 c9 58 f9 3d 84 69 88 3e 3f 12 94 3e f9 d1 6c 3e
       0.121751375 0.26643002 0.2892017 0.23126973

fc3.weight f4 [16, 64]
000000 42 ba d5 bd a9 d4 c1 be 84 01 08 bd c1 ae c9 be
       -0.104359165 -0.3785756 -0.03320457 -0.3939114
000010 6e cf e4 be 84 0b 8d be cc fb 4b be 70 c1 f8 3d
       -0.44689506 -0.27547848 -0.19920272 0.1214627
000020 60 50 ff 3b 83 80 83 be b0 1a 9f be e7 aa b9 be
       0.007791564 -0.25683984 -0.31075048 -0.362632
000030 17 fe 3e 3d 51 b0 7e be bc 05 25 3d 6f 55 86 be
       0.046629038 -0.24871947 0.04028867 -0.26237056
000040 4c 30 88 be ee 0a d9 be b0 10 c4 be d9 f7 a7 be
       -0.26599348 -0.4239115 -0.38293982 -0.3280628
000050 c0 b4 c6 be 80 04 d8 be 9c 34 e6 bd 55 0e 70 bd
       -0.38809776 -0.42190933 -0.11240503 -0.058607418
000060 44 58 cc be b0 9c 9e be f0 3f 8e bc 23 ec a7 be
       -0.3991109 -0.30978918 -0.017364472 -0.32797346
000070 b0 f0 c1 be b9 ee c0 be ed 38 dd be 43 9f 8f be
       -0.37878942 -0.3768213 -0.43207493 -0.28051195
000080 3a b7 e1 3d 16 2d a0 be 44 3a 5f bc 74 2d 8e 3d
       0.11021276 -0.31284398 -0.013624731 0.06942263
000090 1f 88 8e be 5e 1f 6b be 63 71 8a be 9e b1 b4 be
       -0.27838227 -0.22961184 -0.27039632 -0.3529176
0000a0 0a e5 b2 3d b0 47 9b be 39 5a 9d be 28 50 d3 3c
       0.08735092 -0.3032813 -0.30732897 0.025795057
0000b0 94 16 de bd 44 53 04 bd 90 bf 8f be c0 5f a7 be
       -0.1084415 -0.03230597 -0.28075838 -0.3269024
0000c0 3e 17 cc be a6 6a 4d 3d c2 0f 3f bd d9 0e c3 be
       -0.39861482 0.050150536 -0.046645887 -0.38097265
0000d0 ac 77 d7 be b8 4c 8c be 80 5d 26 bc 02 19 ab be
       -0.4208349 -0.27402282 -0.010154128 -0.33417517
0000e0 a1 86 8b be 03 60 9b 3d b7 fc 56 be b1 5e 9b be
       -0.2725115 0.07586672 -0.2099484 -0.3034568
0000f0 42 36 99 be 4c 83 95 be ee 43 d6 be af f2 5f be
       -0.29924208 -0.29201734 -0.418487 -0.2186992
000100 6e 79 93 bd 02 b0 c0 be 2c 58 b2 3d fa be cb be
       -0.07200895 -0.37634283 0.08708224 -0.3979414
000110 53 88 b2 be 29 c8 a4 be 93 7a 69 be 87 90 3e 3d
       -0.34869632 -0.3218396 -0.22800665 0.04652455
000120 dc 1b fe 3d a6 da 96 be 94 fd d7 be 99 33 7a be
       0.124076575 -0.2946369 -0.42185652 -0.24433745
000130 36 20 89 bd 63 9a 2e be be 5e f1 3d 54 53 c7 be
       -0.06695597 -0.17051081 0.11785649 -0.38930762
000140 f6 78 b1 be bb 10 b1 be 81 e9 61 be 75 92 85 be
       -0.34662598 -0.34583077 -0.22061731 -0.260883
000150 2f 33 c2 be 5e 65 a1 be 18 12 88 3c 48 99 72 bc
       -0.37929675 -0.3152265 0.01661019 -0.014807053
000160 6e 17 be be d1 75 55 be 56 d7 ae 3d 9c fd 6a be
       -0.3712725 -0.20845725 0.08537166 -0.22948307
000170 41 82 a9 be 2e 85 a6 be 09 11 6f be 79 f4 8d be
       -0.33107188 -0.32523483 -0.23346342 -0.2772558
000180 a1 ab e5 3d f2 88 4d be c1 6d b3 3d 18 95 6e bd
       0.11214376 -0.20071772 0.08761168 -0.058247656
000190 5d d7 7b be bc fc ca be 4a 85 ce be 7d ae 3b be
       -0.24593873 -0.39645946 -0.40336066 -0.18328281
0001a0 20 df cc 3d b2 df 5c be 1b 04 8f be d8 bf c6 3d
       0.10003495 -0.21569708 -0.2793282 0.0970456
0001b0 a2 26 b6 3d d8 57 9f bc 31 9a b3 be b4 cd aa be
       0.088940874 -0.019451067 -0.35078576 -0.33360064
0001c0 b6 5b d0 be fb 95 b9 3c 87 cd ce 3d 2e c7 77 be
       -0.4069497 0.022654524 0.10097795 -0.24197075
0001d0 19 c3 7e be d9 0c a1 be cc 95 58 bd 20 dc bb be
       -0.24879111 -0.31455114 -0.052877232 -0.3669138
0001e0 29 26 0a be 39 5e 1d 3d 87 90 c9 be 52 d4 85 be
       -0.1349112 0.038419936 -0.39368078 -0.2613855
0001f0 f1 b3 a8 be c6 ac 53 be b9 de 89 be 5b 34 8d be
       -0.32949784 -0.20671377 -0.26927736 -0.27579007
000200 9c 1e 52 3d b2 d0 8d be 86 69 b3 3d 15 63 19 be
       0.051298723 -0.27698284 0.087603614 -0.14979203
000210 33 67 a0 be 53 b5 94 be b6 04 83 be 31 64 4e bc
       -0.31328735 -0.2904459 -0.25589532 -0.01259713
000220 b2 e1 8e 3d 27 40 66 bd 93 81 69 be 1e 08 9a be
       0.06976642 -0.056213524 -0.22803335 -0.30084318
000230 e4 97 ae 3d b6 59 f9 bd 34 e0 fb bd 52 84 86 be
       0.085250646 -0.12175314 -0.12298623 -0.26272827
000240 f5 c3 69 be 01 30 9e be 78 f9 7a be 21 b3 9c be
       -0.22828658 -0.30896 -0.24509227 -0.30605415
000250 a5 d3 f6 bd 1d 2d 30 be 28 80 80 3c 44 4a 82 3d
       -0.12052087 -0.1720471 0.01568611 0.06361821
000260 d5 7c 05 be 08 d9 a2 be 9d 7e 7f 3d db 68 a3 be
       -0.13035901 -0.31806207 0.062376607 -0.31915936
000270 02 ca 67 be 9d 74 2c be 6b 89 8a be db fd 83 be
       -0.22635654 -0.1684136 -0.27057967 -0.25779614
000280 be a2 8e 3d eb 7b af be 1a 32 99 3d e4 25 77 bd
       0.06964634 -0.3427423 0.07480259 -0.06033887
000290 00 6d b3 be 80 f0 4e be 5d 03 06 be 82 69 53 be
       -0.35044098 -0.20208931 -0.1308722 -0.20645717
0002a0 d2 db 2c bd f2 73 a5 be fc 53 85 be 40 2b ed 3c
       -0.042201824 -0.32315022 -0.26040637 0.028951287
0002b0 70 8d f0 3d 44 3b 40 bd 98 e4 6c be 4e 4a 48 be
       0.11745727 -0.04693152 -0.23134077 -0.19559595
0002c0 61 12 49 be c4 ee 6f 3d b8 7c 48 3d eb 4e a0 be
       -0.19635917 0.058577314 0.048947066 -0.3131021
0002d0 9d 2e 55 be ad 4a b1 be cc e6 3a 3d cc e6 53 be
       -0.20818563 -0.34627286 0.04563026 -0.20693511
0002e0 3f 89 21 3d 8c d6 a9 3d 83 1a 5d be df 13 a5 be
       0.03943753 0.08292875 -0.21592145 -0.32241723
0002f0 08 81 f3 bd b5 92 93 be 1a d4 a6 be 85 2b 7c be
       -0.11889845 -0.28822866 -0.32583696 -0.24625976
000300 48 46 04 bd 0a 1d 7d be 88 9c 6c bd b2 ad 7b be
       -0.032293588 -0.24718109 -0.057766467 -0.24577978
000310 59 a0 8b be 7d 0f 85 be 69 c2 d1 be e5 6c e3 bd
       -0.27270773 -0.2598838 -0.40968636 -0.11104754
000320 22 d3 fa bd 6c c7 22 be 1e 23 a6 be ba 3f dc be
       -0.12247302 -0.15896386 -0.32448667 -0.4301737
000330 7a df 42 3d 74 e9 41 be 04 cf eb 3d d8 48 a0 be
       0.047576405 -0.18936712 0.115140945 -0.31305575
000340 cb 50 b4 be 2e de c1 be 5b 9b a3 be 6a d5 ba be
       -0.3521789 -0.37864822 -0.31954464 -0.36490947
000350 bd 3a 7e be ee 8d c4 be 40 4d 05 3c 62 9f 25 3c
       -0.24827094 -0.38389534 0.008136094 0.010108801
000360 0d 2c 64 be 10 46 6e be d0 02 d6 3c 4a 0a 84 be
       -0.22282429 -0.23268914 0.026124388 -0.257891
000370 fc 4c 7e be 11 ac c5 be 8e b5 94 be 25 f8 a6 be
       -0.24834055 -0.3860784 -0.29044765 -0.32611194
000380 43 ed bd 3d 75 b8 e1 be f2 0e 09 be ba 86 e7 bd
       0.0927377 -0.44086042 -0.13384607 -0.11304994
000390 9e 9f 5c be bd c2 96 be 26 f0 9f be 65 ed 8b be
       -0.21545264 -0.2944545 -0.31237906 -0.27329555
0003a0 08 e8 e3 bc 66 45 8b be cb ca bf be 78 fb 26 bd
       -0.027820602 -0.27201384 -0.37459406 -0.040767163
0003b0 5e 6e 97 bd 68 3a a9 3c 2e 28 8a be 18 27 c2 be
       -0.07394098 0.020657733 -0.2698378 -0.3792045
0003c0 a5 8c 8a be 4d 46 8e bd a6 7a 4d bd f9 58 c6 be
       -0.27060428 -0.069470026 -0.050165795 -0.38739756
0003d0 e3 d1 cc be 0e bb 57 be dc 5e f2 bd 3e 07 d1 be
       -0.4000388 -0.2106745 -0.11834499 -0.40825838
0003e0 bc 48 d1 bd 78 71 59 3d 68 a1 a2 be 15 7e 81 be
       -0.10218951 0.053086728 -0.31763768 -0.25291505
0003f0 a2 5e 96 be b0 46 ba be a6 4e a1 be c6 0a b3 be
       -0.29369074 -0.36382055 -0.31505316 -0.34969157

fc3.bias f4 [16]
000000 1a c4 39 be 81 6a 02 bd 77 9f f3 bc db ed 65 be
       -0.18141213 -0.03183985 -0.029739125 -0.22454016
000010 f3 ab a1 bd ef 22 cd bd aa 3a 39 be 64 52 c3 bb
       -0.07894125 -0.10016429 -0.18088785 -0.0059607495
000020 40 12 87 be 95 16 de bd d6 b8 00 be e7 54 e0 bc
       -0.2638111 -0.10844151 -0.1257051 -0.027384235
000030 92 33 22 3c d8 0c a8 bc 1c f5 d4 3d f0 cb 80 3d
       0.009899991 -0.020513937 0.103983134 0.06288898
